WARNING: Logging before InitGoogleLogging() is written to STDERR
I1125 05:56:24.787745 1757518 net.cpp:49] Initializing net from parameters: 
name: "ZF"
input: "data"
input: "im_info"
state {
  phase: TEST
}
input_shape {
  dim: 1
  dim: 3
  dim: 224
  dim: 224
}
input_shape {
  dim: 1
  dim: 3
}
layer {
  name: "conv1"
  type: "Convolution"
  bottom: "data"
  top: "conv1"
  convolution_param {
    num_output: 96
    pad: 3
    kernel_size: 7
    stride: 2
  }
}
layer {
  name: "relu1"
  type: "ReLU"
  bottom: "conv1"
  top: "conv1"
}
layer {
  name: "norm1"
  type: "LRN"
  bottom: "conv1"
  top: "norm1"
  lrn_param {
    local_size: 3
    alpha: 5e-05
    beta: 0.75
    norm_region: WITHIN_CHANNEL
    engine: CAFFE
  }
}
layer {
  name: "pool1"
  type: "Pooling"
  bottom: "norm1"
  top: "pool1"
  pooling_param {
    pool: MAX
    kernel_size: 3
    stride: 2
    pad: 1
  }
}
layer {
  name: "conv2"
  type: "Convolution"
  bottom: "pool1"
  top: "conv2"
  convolution_param {
    num_output: 256
    pad: 2
    kernel_size: 5
    stride: 2
  }
}
layer {
  name: "relu2"
  type: "ReLU"
  bottom: "conv2"
  top: "conv2"
}
layer {
  name: "norm2"
  type: "LRN"
  bottom: "conv2"
  top: "norm2"
  lrn_param {
    local_size: 3
    alpha: 5e-05
    beta: 0.75
    norm_region: WITHIN_CHANNEL
    engine: CAFFE
  }
}
layer {
  name: "pool2"
  type: "Pooling"
  bottom: "norm2"
  top: "pool2"
  pooling_param {
    pool: MAX
    kernel_size: 3
    stride: 2
    pad: 1
  }
}
layer {
  name: "conv3"
  type: "Convolution"
  bottom: "pool2"
  top: "conv3"
  convolution_param {
    num_output: 384
    pad: 1
    kernel_size: 3
    stride: 1
  }
}
layer {
  name: "relu3"
  type: "ReLU"
  bottom: "conv3"
  top: "conv3"
}
layer {
  name: "conv4"
  type: "Convolution"
  bottom: "conv3"
  top: "conv4"
  convolution_param {
    num_output: 384
    pad: 1
    kernel_size: 3
    stride: 1
  }
}
layer {
  name: "relu4"
  type: "ReLU"
  bottom: "conv4"
  top: "conv4"
}
layer {
  name: "conv5"
  type: "Convolution"
  bottom: "conv4"
  top: "conv5"
  convolution_param {
    num_output: 256
    pad: 1
    kernel_size: 3
    stride: 1
  }
}
layer {
  name: "relu5"
  type: "ReLU"
  bottom: "conv5"
  top: "conv5"
}
layer {
  name: "rpn_conv/3x3"
  type: "Convolution"
  bottom: "conv5"
  top: "rpn/output"
  convolution_param {
    num_output: 256
    pad: 1
    kernel_size: 3
    stride: 1
    weight_filler {
      type: "gaussian"
      std: 0.01
    }
    bias_filler {
      type: "constant"
      value: 0
    }
  }
}
layer {
  name: "rpn_relu/3x3"
  type: "ReLU"
  bottom: "rpn/output"
  top: "rpn/output"
}
layer {
  name: "rpn_cls_score"
  type: "Convolution"
  bottom: "rpn/output"
  top: "rpn_cls_score"
  convolution_param {
    num_output: 18
    pad: 0
    kernel_size: 1
    stride: 1
    weight_filler {
      type: "gaussian"
      std: 0.01
    }
    bias_filler {
      type: "constant"
      value: 0
    }
  }
}
layer {
  name: "rpn_bbox_pred"
  type: "Convolution"
  bottom: "rpn/output"
  top: "rpn_bbox_pred"
  convolution_param {
    num_output: 36
    pad: 0
    kernel_size: 1
    stride: 1
    weight_filler {
      type: "gaussian"
      std: 0.01
    }
    bias_filler {
      type: "constant"
      value: 0
    }
  }
}
layer {
  name: "rpn_cls_score_reshape"
  type: "Reshape"
  bottom: "rpn_cls_score"
  top: "rpn_cls_score_reshape"
  reshape_param {
    shape {
      dim: 0
      dim: 2
      dim: -1
      dim: 0
    }
  }
}
layer {
  name: "rpn_cls_prob"
  type: "Softmax"
  bottom: "rpn_cls_score_reshape"
  top: "rpn_cls_prob"
}
layer {
  name: "rpn_cls_prob_reshape"
  type: "Reshape"
  bottom: "rpn_cls_prob"
  top: "rpn_cls_prob_reshape"
  reshape_param {
    shape {
      dim: 0
      dim: 18
      dim: -1
      dim: 0
    }
  }
}
layer {
  name: "proposal"
  type: "Python"
  bottom: "rpn_cls_prob_reshape"
  bottom: "rpn_bbox_pred"
  bottom: "im_info"
  top: "rois"
  python_param {
    module: "rpn.proposal_layer"
    layer: "ProposalLayer"
    param_str: "\'feat_stride\': 16"
  }
}
layer {
  name: "roi_pool_conv5"
  type: "ROIPooling"
  bottom: "conv5"
  bottom: "rois"
  top: "roi_pool_conv5"
  roi_pooling_param {
    pooled_h: 6
    pooled_w: 6
    spatial_scale: 0.0625
  }
}
layer {
  name: "fc6"
  type: "InnerProduct"
  bottom: "roi_pool_conv5"
  top: "fc6"
  inner_product_param {
    num_output: 4096
  }
}
layer {
  name: "relu6"
  type: "ReLU"
  bottom: "fc6"
  top: "fc6"
}
layer {
  name: "drop6"
  type: "Dropout"
  bottom: "fc6"
  top: "fc6"
  dropout_param {
    dropout_ratio: 0.5
    scale_train: false
  }
}
layer {
  name: "fc7"
  type: "InnerProduct"
  bottom: "fc6"
  top: "fc7"
  inner_product_param {
    num_output: 4096
  }
}
layer {
  name: "relu7"
  type: "ReLU"
  bottom: "fc7"
  top: "fc7"
}
layer {
  name: "drop7"
  type: "Dropout"
  bottom: "fc7"
  top: "fc7"
  dropout_param {
    dropout_ratio: 0.5
    scale_train: false
  }
}
layer {
  name: "cls_score"
  type: "InnerProduct"
  bottom: "fc7"
  top: "cls_score"
  inner_product_param {
    num_output: 2
  }
}
layer {
  name: "bbox_pred"
  type: "InnerProduct"
  bottom: "fc7"
  top: "bbox_pred"
  inner_product_param {
    num_output: 8
  }
}
layer {
  name: "cls_prob"
  type: "Softmax"
  bottom: "cls_score"
  top: "cls_prob"
  loss_param {
    ignore_label: -1
    normalize: true
  }
}
I1125 05:56:24.787950 1757518 net.cpp:413] Input 0 -> data
I1125 05:56:24.798451 1757518 net.cpp:413] Input 1 -> im_info
I1125 05:56:24.798521 1757518 layer_factory.hpp:77] Creating layer conv1
I1125 05:56:24.798547 1757518 net.cpp:106] Creating Layer conv1
I1125 05:56:24.798553 1757518 net.cpp:454] conv1 <- data
I1125 05:56:24.798564 1757518 net.cpp:411] conv1 -> conv1
I1125 05:56:24.799700 1757518 net.cpp:150] Setting up conv1
I1125 05:56:24.799721 1757518 net.cpp:157] Top shape: 1 96 112 112 (1204224)
I1125 05:56:24.799727 1757518 net.cpp:165] Memory required for data: 4816896
I1125 05:56:24.799744 1757518 layer_factory.hpp:77] Creating layer relu1
I1125 05:56:24.799756 1757518 net.cpp:106] Creating Layer relu1
I1125 05:56:24.799762 1757518 net.cpp:454] relu1 <- conv1
I1125 05:56:24.799770 1757518 net.cpp:397] relu1 -> conv1 (in-place)
I1125 05:56:24.799785 1757518 net.cpp:150] Setting up relu1
I1125 05:56:24.799793 1757518 net.cpp:157] Top shape: 1 96 112 112 (1204224)
I1125 05:56:24.799798 1757518 net.cpp:165] Memory required for data: 9633792
I1125 05:56:24.799803 1757518 layer_factory.hpp:77] Creating layer norm1
I1125 05:56:24.799811 1757518 net.cpp:106] Creating Layer norm1
I1125 05:56:24.799816 1757518 net.cpp:454] norm1 <- conv1
I1125 05:56:24.799825 1757518 net.cpp:411] norm1 -> norm1
I1125 05:56:24.799985 1757518 net.cpp:150] Setting up norm1
I1125 05:56:24.799998 1757518 net.cpp:157] Top shape: 1 96 112 112 (1204224)
I1125 05:56:24.800004 1757518 net.cpp:165] Memory required for data: 14450688
I1125 05:56:24.800009 1757518 layer_factory.hpp:77] Creating layer pool1
I1125 05:56:24.800017 1757518 net.cpp:106] Creating Layer pool1
I1125 05:56:24.800024 1757518 net.cpp:454] pool1 <- norm1
I1125 05:56:24.800030 1757518 net.cpp:411] pool1 -> pool1
I1125 05:56:24.800086 1757518 net.cpp:150] Setting up pool1
I1125 05:56:24.800098 1757518 net.cpp:157] Top shape: 1 96 57 57 (311904)
I1125 05:56:24.800103 1757518 net.cpp:165] Memory required for data: 15698304
I1125 05:56:24.800108 1757518 layer_factory.hpp:77] Creating layer conv2
I1125 05:56:24.800120 1757518 net.cpp:106] Creating Layer conv2
I1125 05:56:24.800125 1757518 net.cpp:454] conv2 <- pool1
I1125 05:56:24.800134 1757518 net.cpp:411] conv2 -> conv2
I1125 05:56:24.802960 1757518 net.cpp:150] Setting up conv2
I1125 05:56:24.802980 1757518 net.cpp:157] Top shape: 1 256 29 29 (215296)
I1125 05:56:24.802986 1757518 net.cpp:165] Memory required for data: 16559488
I1125 05:56:24.802999 1757518 layer_factory.hpp:77] Creating layer relu2
I1125 05:56:24.803011 1757518 net.cpp:106] Creating Layer relu2
I1125 05:56:24.803017 1757518 net.cpp:454] relu2 <- conv2
I1125 05:56:24.803025 1757518 net.cpp:397] relu2 -> conv2 (in-place)
I1125 05:56:24.803035 1757518 net.cpp:150] Setting up relu2
I1125 05:56:24.803041 1757518 net.cpp:157] Top shape: 1 256 29 29 (215296)
I1125 05:56:24.803053 1757518 net.cpp:165] Memory required for data: 17420672
I1125 05:56:24.803058 1757518 layer_factory.hpp:77] Creating layer norm2
I1125 05:56:24.803068 1757518 net.cpp:106] Creating Layer norm2
I1125 05:56:24.803073 1757518 net.cpp:454] norm2 <- conv2
I1125 05:56:24.803081 1757518 net.cpp:411] norm2 -> norm2
I1125 05:56:24.803232 1757518 net.cpp:150] Setting up norm2
I1125 05:56:24.803246 1757518 net.cpp:157] Top shape: 1 256 29 29 (215296)
I1125 05:56:24.803251 1757518 net.cpp:165] Memory required for data: 18281856
I1125 05:56:24.803254 1757518 layer_factory.hpp:77] Creating layer pool2
I1125 05:56:24.803262 1757518 net.cpp:106] Creating Layer pool2
I1125 05:56:24.803267 1757518 net.cpp:454] pool2 <- norm2
I1125 05:56:24.803274 1757518 net.cpp:411] pool2 -> pool2
I1125 05:56:24.803328 1757518 net.cpp:150] Setting up pool2
I1125 05:56:24.803339 1757518 net.cpp:157] Top shape: 1 256 15 15 (57600)
I1125 05:56:24.803344 1757518 net.cpp:165] Memory required for data: 18512256
I1125 05:56:24.803349 1757518 layer_factory.hpp:77] Creating layer conv3
I1125 05:56:24.803359 1757518 net.cpp:106] Creating Layer conv3
I1125 05:56:24.803365 1757518 net.cpp:454] conv3 <- pool2
I1125 05:56:24.803375 1757518 net.cpp:411] conv3 -> conv3
I1125 05:56:24.806186 1757518 net.cpp:150] Setting up conv3
I1125 05:56:24.806206 1757518 net.cpp:157] Top shape: 1 384 15 15 (86400)
I1125 05:56:24.806211 1757518 net.cpp:165] Memory required for data: 18857856
I1125 05:56:24.806223 1757518 layer_factory.hpp:77] Creating layer relu3
I1125 05:56:24.806232 1757518 net.cpp:106] Creating Layer relu3
I1125 05:56:24.806241 1757518 net.cpp:454] relu3 <- conv3
I1125 05:56:24.806248 1757518 net.cpp:397] relu3 -> conv3 (in-place)
I1125 05:56:24.806258 1757518 net.cpp:150] Setting up relu3
I1125 05:56:24.806265 1757518 net.cpp:157] Top shape: 1 384 15 15 (86400)
I1125 05:56:24.806269 1757518 net.cpp:165] Memory required for data: 19203456
I1125 05:56:24.806275 1757518 layer_factory.hpp:77] Creating layer conv4
I1125 05:56:24.806284 1757518 net.cpp:106] Creating Layer conv4
I1125 05:56:24.806289 1757518 net.cpp:454] conv4 <- conv3
I1125 05:56:24.806298 1757518 net.cpp:411] conv4 -> conv4
I1125 05:56:24.810159 1757518 net.cpp:150] Setting up conv4
I1125 05:56:24.810179 1757518 net.cpp:157] Top shape: 1 384 15 15 (86400)
I1125 05:56:24.810185 1757518 net.cpp:165] Memory required for data: 19549056
I1125 05:56:24.810194 1757518 layer_factory.hpp:77] Creating layer relu4
I1125 05:56:24.810204 1757518 net.cpp:106] Creating Layer relu4
I1125 05:56:24.810209 1757518 net.cpp:454] relu4 <- conv4
I1125 05:56:24.810216 1757518 net.cpp:397] relu4 -> conv4 (in-place)
I1125 05:56:24.810225 1757518 net.cpp:150] Setting up relu4
I1125 05:56:24.810232 1757518 net.cpp:157] Top shape: 1 384 15 15 (86400)
I1125 05:56:24.810237 1757518 net.cpp:165] Memory required for data: 19894656
I1125 05:56:24.810242 1757518 layer_factory.hpp:77] Creating layer conv5
I1125 05:56:24.810255 1757518 net.cpp:106] Creating Layer conv5
I1125 05:56:24.810259 1757518 net.cpp:454] conv5 <- conv4
I1125 05:56:24.810268 1757518 net.cpp:411] conv5 -> conv5
I1125 05:56:24.813053 1757518 net.cpp:150] Setting up conv5
I1125 05:56:24.813073 1757518 net.cpp:157] Top shape: 1 256 15 15 (57600)
I1125 05:56:24.813079 1757518 net.cpp:165] Memory required for data: 20125056
I1125 05:56:24.813091 1757518 layer_factory.hpp:77] Creating layer relu5
I1125 05:56:24.813102 1757518 net.cpp:106] Creating Layer relu5
I1125 05:56:24.813108 1757518 net.cpp:454] relu5 <- conv5
I1125 05:56:24.813117 1757518 net.cpp:397] relu5 -> conv5 (in-place)
I1125 05:56:24.813125 1757518 net.cpp:150] Setting up relu5
I1125 05:56:24.813133 1757518 net.cpp:157] Top shape: 1 256 15 15 (57600)
I1125 05:56:24.813138 1757518 net.cpp:165] Memory required for data: 20355456
I1125 05:56:24.813143 1757518 layer_factory.hpp:77] Creating layer conv5_relu5_0_split
I1125 05:56:24.813150 1757518 net.cpp:106] Creating Layer conv5_relu5_0_split
I1125 05:56:24.813154 1757518 net.cpp:454] conv5_relu5_0_split <- conv5
I1125 05:56:24.813161 1757518 net.cpp:411] conv5_relu5_0_split -> conv5_relu5_0_split_0
I1125 05:56:24.813179 1757518 net.cpp:411] conv5_relu5_0_split -> conv5_relu5_0_split_1
I1125 05:56:24.813241 1757518 net.cpp:150] Setting up conv5_relu5_0_split
I1125 05:56:24.813253 1757518 net.cpp:157] Top shape: 1 256 15 15 (57600)
I1125 05:56:24.813261 1757518 net.cpp:157] Top shape: 1 256 15 15 (57600)
I1125 05:56:24.813264 1757518 net.cpp:165] Memory required for data: 20816256
I1125 05:56:24.813271 1757518 layer_factory.hpp:77] Creating layer rpn_conv/3x3
I1125 05:56:24.813287 1757518 net.cpp:106] Creating Layer rpn_conv/3x3
I1125 05:56:24.813292 1757518 net.cpp:454] rpn_conv/3x3 <- conv5_relu5_0_split_0
I1125 05:56:24.813302 1757518 net.cpp:411] rpn_conv/3x3 -> rpn/output
I1125 05:56:24.840194 1757518 net.cpp:150] Setting up rpn_conv/3x3
I1125 05:56:24.840258 1757518 net.cpp:157] Top shape: 1 256 15 15 (57600)
I1125 05:56:24.840270 1757518 net.cpp:165] Memory required for data: 21046656
I1125 05:56:24.840289 1757518 layer_factory.hpp:77] Creating layer rpn_relu/3x3
I1125 05:56:24.840313 1757518 net.cpp:106] Creating Layer rpn_relu/3x3
I1125 05:56:24.840325 1757518 net.cpp:454] rpn_relu/3x3 <- rpn/output
I1125 05:56:24.840339 1757518 net.cpp:397] rpn_relu/3x3 -> rpn/output (in-place)
I1125 05:56:24.840359 1757518 net.cpp:150] Setting up rpn_relu/3x3
I1125 05:56:24.840371 1757518 net.cpp:157] Top shape: 1 256 15 15 (57600)
I1125 05:56:24.840379 1757518 net.cpp:165] Memory required for data: 21277056
I1125 05:56:24.840389 1757518 layer_factory.hpp:77] Creating layer rpn/output_rpn_relu/3x3_0_split
I1125 05:56:24.840401 1757518 net.cpp:106] Creating Layer rpn/output_rpn_relu/3x3_0_split
I1125 05:56:24.840410 1757518 net.cpp:454] rpn/output_rpn_relu/3x3_0_split <- rpn/output
I1125 05:56:24.840438 1757518 net.cpp:411] rpn/output_rpn_relu/3x3_0_split -> rpn/output_rpn_relu/3x3_0_split_0
I1125 05:56:24.840454 1757518 net.cpp:411] rpn/output_rpn_relu/3x3_0_split -> rpn/output_rpn_relu/3x3_0_split_1
I1125 05:56:24.840569 1757518 net.cpp:150] Setting up rpn/output_rpn_relu/3x3_0_split
I1125 05:56:24.840584 1757518 net.cpp:157] Top shape: 1 256 15 15 (57600)
I1125 05:56:24.840595 1757518 net.cpp:157] Top shape: 1 256 15 15 (57600)
I1125 05:56:24.840605 1757518 net.cpp:165] Memory required for data: 21737856
I1125 05:56:24.840613 1757518 layer_factory.hpp:77] Creating layer rpn_cls_score
I1125 05:56:24.840636 1757518 net.cpp:106] Creating Layer rpn_cls_score
I1125 05:56:24.840646 1757518 net.cpp:454] rpn_cls_score <- rpn/output_rpn_relu/3x3_0_split_0
I1125 05:56:24.840662 1757518 net.cpp:411] rpn_cls_score -> rpn_cls_score
I1125 05:56:24.841625 1757518 net.cpp:150] Setting up rpn_cls_score
I1125 05:56:24.841645 1757518 net.cpp:157] Top shape: 1 18 15 15 (4050)
I1125 05:56:24.841655 1757518 net.cpp:165] Memory required for data: 21754056
I1125 05:56:24.841670 1757518 layer_factory.hpp:77] Creating layer rpn_bbox_pred
I1125 05:56:24.841691 1757518 net.cpp:106] Creating Layer rpn_bbox_pred
I1125 05:56:24.841701 1757518 net.cpp:454] rpn_bbox_pred <- rpn/output_rpn_relu/3x3_0_split_1
I1125 05:56:24.841714 1757518 net.cpp:411] rpn_bbox_pred -> rpn_bbox_pred
I1125 05:56:24.842999 1757518 net.cpp:150] Setting up rpn_bbox_pred
I1125 05:56:24.843022 1757518 net.cpp:157] Top shape: 1 36 15 15 (8100)
I1125 05:56:24.843032 1757518 net.cpp:165] Memory required for data: 21786456
I1125 05:56:24.843046 1757518 layer_factory.hpp:77] Creating layer rpn_cls_score_reshape
I1125 05:56:24.843075 1757518 net.cpp:106] Creating Layer rpn_cls_score_reshape
I1125 05:56:24.843085 1757518 net.cpp:454] rpn_cls_score_reshape <- rpn_cls_score
I1125 05:56:24.843097 1757518 net.cpp:411] rpn_cls_score_reshape -> rpn_cls_score_reshape
I1125 05:56:24.843169 1757518 net.cpp:150] Setting up rpn_cls_score_reshape
I1125 05:56:24.843184 1757518 net.cpp:157] Top shape: 1 2 135 15 (4050)
I1125 05:56:24.843194 1757518 net.cpp:165] Memory required for data: 21802656
I1125 05:56:24.843202 1757518 layer_factory.hpp:77] Creating layer rpn_cls_prob
I1125 05:56:24.843215 1757518 net.cpp:106] Creating Layer rpn_cls_prob
I1125 05:56:24.843241 1757518 net.cpp:454] rpn_cls_prob <- rpn_cls_score_reshape
I1125 05:56:24.843255 1757518 net.cpp:411] rpn_cls_prob -> rpn_cls_prob
I1125 05:56:24.843423 1757518 net.cpp:150] Setting up rpn_cls_prob
I1125 05:56:24.843439 1757518 net.cpp:157] Top shape: 1 2 135 15 (4050)
I1125 05:56:24.843448 1757518 net.cpp:165] Memory required for data: 21818856
I1125 05:56:24.843457 1757518 layer_factory.hpp:77] Creating layer rpn_cls_prob_reshape
I1125 05:56:24.843473 1757518 net.cpp:106] Creating Layer rpn_cls_prob_reshape
I1125 05:56:24.843483 1757518 net.cpp:454] rpn_cls_prob_reshape <- rpn_cls_prob
I1125 05:56:24.843495 1757518 net.cpp:411] rpn_cls_prob_reshape -> rpn_cls_prob_reshape
I1125 05:56:24.843557 1757518 net.cpp:150] Setting up rpn_cls_prob_reshape
I1125 05:56:24.843572 1757518 net.cpp:157] Top shape: 1 18 15 15 (4050)
I1125 05:56:24.843581 1757518 net.cpp:165] Memory required for data: 21835056
I1125 05:56:24.843590 1757518 layer_factory.hpp:77] Creating layer proposal
I1125 05:56:24.875869 1757518 net.cpp:106] Creating Layer proposal
I1125 05:56:24.875912 1757518 net.cpp:454] proposal <- rpn_cls_prob_reshape
I1125 05:56:24.875926 1757518 net.cpp:454] proposal <- rpn_bbox_pred
I1125 05:56:24.875936 1757518 net.cpp:454] proposal <- im_info
I1125 05:56:24.875947 1757518 net.cpp:411] proposal -> rois
I1125 05:56:24.877791 1757518 net.cpp:150] Setting up proposal
I1125 05:56:24.877825 1757518 net.cpp:157] Top shape: 1 5 (5)
I1125 05:56:24.877833 1757518 net.cpp:165] Memory required for data: 21835076
I1125 05:56:24.877843 1757518 layer_factory.hpp:77] Creating layer roi_pool_conv5
I1125 05:56:24.877859 1757518 net.cpp:106] Creating Layer roi_pool_conv5
I1125 05:56:24.877868 1757518 net.cpp:454] roi_pool_conv5 <- conv5_relu5_0_split_1
I1125 05:56:24.877878 1757518 net.cpp:454] roi_pool_conv5 <- rois
I1125 05:56:24.877890 1757518 net.cpp:411] roi_pool_conv5 -> roi_pool_conv5
I1125 05:56:24.877907 1757518 roi_pooling_layer.cpp:30] Spatial scale: 0.0625
I1125 05:56:24.878010 1757518 net.cpp:150] Setting up roi_pool_conv5
I1125 05:56:24.878023 1757518 net.cpp:157] Top shape: 1 256 6 6 (9216)
I1125 05:56:24.878031 1757518 net.cpp:165] Memory required for data: 21871940
I1125 05:56:24.878038 1757518 layer_factory.hpp:77] Creating layer fc6
I1125 05:56:24.878051 1757518 net.cpp:106] Creating Layer fc6
I1125 05:56:24.878059 1757518 net.cpp:454] fc6 <- roi_pool_conv5
I1125 05:56:24.878070 1757518 net.cpp:411] fc6 -> fc6
I1125 05:56:24.988632 1757518 net.cpp:150] Setting up fc6
I1125 05:56:24.988684 1757518 net.cpp:157] Top shape: 1 4096 (4096)
I1125 05:56:24.988692 1757518 net.cpp:165] Memory required for data: 21888324
I1125 05:56:24.988713 1757518 layer_factory.hpp:77] Creating layer relu6
I1125 05:56:24.988729 1757518 net.cpp:106] Creating Layer relu6
I1125 05:56:24.988736 1757518 net.cpp:454] relu6 <- fc6
I1125 05:56:24.988745 1757518 net.cpp:397] relu6 -> fc6 (in-place)
I1125 05:56:24.988759 1757518 net.cpp:150] Setting up relu6
I1125 05:56:24.988765 1757518 net.cpp:157] Top shape: 1 4096 (4096)
I1125 05:56:24.988770 1757518 net.cpp:165] Memory required for data: 21904708
I1125 05:56:24.988775 1757518 layer_factory.hpp:77] Creating layer drop6
I1125 05:56:24.988795 1757518 net.cpp:106] Creating Layer drop6
I1125 05:56:24.988800 1757518 net.cpp:454] drop6 <- fc6
I1125 05:56:24.988806 1757518 net.cpp:397] drop6 -> fc6 (in-place)
I1125 05:56:24.988843 1757518 net.cpp:150] Setting up drop6
I1125 05:56:24.988852 1757518 net.cpp:157] Top shape: 1 4096 (4096)
I1125 05:56:24.988857 1757518 net.cpp:165] Memory required for data: 21921092
I1125 05:56:24.988862 1757518 layer_factory.hpp:77] Creating layer fc7
I1125 05:56:24.988872 1757518 net.cpp:106] Creating Layer fc7
I1125 05:56:24.988876 1757518 net.cpp:454] fc7 <- fc6
I1125 05:56:24.988884 1757518 net.cpp:411] fc7 -> fc7
I1125 05:56:25.036212 1757518 net.cpp:150] Setting up fc7
I1125 05:56:25.036264 1757518 net.cpp:157] Top shape: 1 4096 (4096)
I1125 05:56:25.036270 1757518 net.cpp:165] Memory required for data: 21937476
I1125 05:56:25.036286 1757518 layer_factory.hpp:77] Creating layer relu7
I1125 05:56:25.036312 1757518 net.cpp:106] Creating Layer relu7
I1125 05:56:25.036320 1757518 net.cpp:454] relu7 <- fc7
I1125 05:56:25.036330 1757518 net.cpp:397] relu7 -> fc7 (in-place)
I1125 05:56:25.036342 1757518 net.cpp:150] Setting up relu7
I1125 05:56:25.036350 1757518 net.cpp:157] Top shape: 1 4096 (4096)
I1125 05:56:25.036355 1757518 net.cpp:165] Memory required for data: 21953860
I1125 05:56:25.036360 1757518 layer_factory.hpp:77] Creating layer drop7
I1125 05:56:25.036370 1757518 net.cpp:106] Creating Layer drop7
I1125 05:56:25.036375 1757518 net.cpp:454] drop7 <- fc7
I1125 05:56:25.036381 1757518 net.cpp:397] drop7 -> fc7 (in-place)
I1125 05:56:25.036437 1757518 net.cpp:150] Setting up drop7
I1125 05:56:25.036453 1757518 net.cpp:157] Top shape: 1 4096 (4096)
I1125 05:56:25.036458 1757518 net.cpp:165] Memory required for data: 21970244
I1125 05:56:25.036463 1757518 layer_factory.hpp:77] Creating layer fc7_drop7_0_split
I1125 05:56:25.036471 1757518 net.cpp:106] Creating Layer fc7_drop7_0_split
I1125 05:56:25.036476 1757518 net.cpp:454] fc7_drop7_0_split <- fc7
I1125 05:56:25.036484 1757518 net.cpp:411] fc7_drop7_0_split -> fc7_drop7_0_split_0
I1125 05:56:25.036494 1757518 net.cpp:411] fc7_drop7_0_split -> fc7_drop7_0_split_1
I1125 05:56:25.036558 1757518 net.cpp:150] Setting up fc7_drop7_0_split
I1125 05:56:25.036567 1757518 net.cpp:157] Top shape: 1 4096 (4096)
I1125 05:56:25.036573 1757518 net.cpp:157] Top shape: 1 4096 (4096)
I1125 05:56:25.036578 1757518 net.cpp:165] Memory required for data: 22003012
I1125 05:56:25.036583 1757518 layer_factory.hpp:77] Creating layer cls_score
I1125 05:56:25.036599 1757518 net.cpp:106] Creating Layer cls_score
I1125 05:56:25.036605 1757518 net.cpp:454] cls_score <- fc7_drop7_0_split_0
I1125 05:56:25.036614 1757518 net.cpp:411] cls_score -> cls_score
I1125 05:56:25.036780 1757518 net.cpp:150] Setting up cls_score
I1125 05:56:25.036790 1757518 net.cpp:157] Top shape: 1 2 (2)
I1125 05:56:25.036795 1757518 net.cpp:165] Memory required for data: 22003020
I1125 05:56:25.036803 1757518 layer_factory.hpp:77] Creating layer bbox_pred
I1125 05:56:25.036811 1757518 net.cpp:106] Creating Layer bbox_pred
I1125 05:56:25.036816 1757518 net.cpp:454] bbox_pred <- fc7_drop7_0_split_1
I1125 05:56:25.036823 1757518 net.cpp:411] bbox_pred -> bbox_pred
I1125 05:56:25.037930 1757518 net.cpp:150] Setting up bbox_pred
I1125 05:56:25.037946 1757518 net.cpp:157] Top shape: 1 8 (8)
I1125 05:56:25.037952 1757518 net.cpp:165] Memory required for data: 22003052
I1125 05:56:25.037961 1757518 layer_factory.hpp:77] Creating layer cls_prob
I1125 05:56:25.037971 1757518 net.cpp:106] Creating Layer cls_prob
I1125 05:56:25.037977 1757518 net.cpp:454] cls_prob <- cls_score
I1125 05:56:25.037986 1757518 net.cpp:411] cls_prob -> cls_prob
I1125 05:56:25.038079 1757518 net.cpp:150] Setting up cls_prob
I1125 05:56:25.038089 1757518 net.cpp:157] Top shape: 1 2 (2)
I1125 05:56:25.038094 1757518 net.cpp:165] Memory required for data: 22003060
I1125 05:56:25.038100 1757518 net.cpp:228] cls_prob does not need backward computation.
I1125 05:56:25.038106 1757518 net.cpp:228] bbox_pred does not need backward computation.
I1125 05:56:25.038111 1757518 net.cpp:228] cls_score does not need backward computation.
I1125 05:56:25.038116 1757518 net.cpp:228] fc7_drop7_0_split does not need backward computation.
…
