WARNING: Logging before InitGoogleLogging() is written to STDERR
I0912 05:01:26.390983 3438603 net.cpp:49] Initializing net from parameters: 
name: "VGG_ILSVRC_16_layers"
input: "data"
input: "im_info"
state {
  phase: TEST
}
input_shape {
  dim: 1
  dim: 3
  dim: 224
  dim: 224
}
input_shape {
  dim: 1
  dim: 3
}
layer {
  name: "conv1_1"
  type: "Convolution"
  bottom: "data"
  top: "conv1_1"
  convolution_param {
    num_output: 64
    pad: 1
    kernel_size: 3
  }
}
layer {
  name: "relu1_1"
  type: "ReLU"
  bottom: "conv1_1"
  top: "conv1_1"
}
layer {
  name: "conv1_2"
  type: "Convolution"
  bottom: "conv1_1"
  top: "conv1_2"
  convolution_param {
    num_output: 64
    pad: 1
    kernel_size: 3
  }
}
layer {
  name: "relu1_2"
  type: "ReLU"
  bottom: "conv1_2"
  top: "conv1_2"
}
layer {
  name: "pool1"
  type: "Pooling"
  bottom: "conv1_2"
  top: "pool1"
  pooling_param {
    pool: MAX
    kernel_size: 2
    stride: 2
  }
}
layer {
  name: "conv2_1"
  type: "Convolution"
  bottom: "pool1"
  top: "conv2_1"
  convolution_param {
    num_output: 128
    pad: 1
    kernel_size: 3
  }
}
layer {
  name: "relu2_1"
  type: "ReLU"
  bottom: "conv2_1"
  top: "conv2_1"
}
layer {
  name: "conv2_2"
  type: "Convolution"
  bottom: "conv2_1"
  top: "conv2_2"
  convolution_param {
    num_output: 128
    pad: 1
    kernel_size: 3
  }
}
layer {
  name: "relu2_2"
  type: "ReLU"
  bottom: "conv2_2"
  top: "conv2_2"
}
layer {
  name: "pool2"
  type: "Pooling"
  bottom: "conv2_2"
  top: "pool2"
  pooling_param {
    pool: MAX
    kernel_size: 2
    stride: 2
  }
}
layer {
  name: "conv3_1"
  type: "Convolution"
  bottom: "pool2"
  top: "conv3_1"
  convolution_param {
    num_output: 256
    pad: 1
    kernel_size: 3
  }
}
layer {
  name: "relu3_1"
  type: "ReLU"
  bottom: "conv3_1"
  top: "conv3_1"
}
layer {
  name: "conv3_2"
  type: "Convolution"
  bottom: "conv3_1"
  top: "conv3_2"
  convolution_param {
    num_output: 256
    pad: 1
    kernel_size: 3
  }
}
layer {
  name: "relu3_2"
  type: "ReLU"
  bottom: "conv3_2"
  top: "conv3_2"
}
layer {
  name: "conv3_3"
  type: "Convolution"
  bottom: "conv3_2"
  top: "conv3_3"
  convolution_param {
    num_output: 256
    pad: 1
    kernel_size: 3
  }
}
layer {
  name: "relu3_3"
  type: "ReLU"
  bottom: "conv3_3"
  top: "conv3_3"
}
layer {
  name: "pool3"
  type: "Pooling"
  bottom: "conv3_3"
  top: "pool3"
  pooling_param {
    pool: MAX
    kernel_size: 2
    stride: 2
  }
}
layer {
  name: "conv4_1"
  type: "Convolution"
  bottom: "pool3"
  top: "conv4_1"
  convolution_param {
    num_output: 512
    pad: 1
    kernel_size: 3
  }
}
layer {
  name: "relu4_1"
  type: "ReLU"
  bottom: "conv4_1"
  top: "conv4_1"
}
layer {
  name: "conv4_2"
  type: "Convolution"
  bottom: "conv4_1"
  top: "conv4_2"
  convolution_param {
    num_output: 512
    pad: 1
    kernel_size: 3
  }
}
layer {
  name: "relu4_2"
  type: "ReLU"
  bottom: "conv4_2"
  top: "conv4_2"
}
layer {
  name: "conv4_3"
  type: "Convolution"
  bottom: "conv4_2"
  top: "conv4_3"
  convolution_param {
    num_output: 512
    pad: 1
    kernel_size: 3
  }
}
layer {
  name: "relu4_3"
  type: "ReLU"
  bottom: "conv4_3"
  top: "conv4_3"
}
layer {
  name: "pool4"
  type: "Pooling"
  bottom: "conv4_3"
  top: "pool4"
  pooling_param {
    pool: MAX
    kernel_size: 2
    stride: 2
  }
}
layer {
  name: "conv5_1"
  type: "Convolution"
  bottom: "pool4"
  top: "conv5_1"
  convolution_param {
    num_output: 512
    pad: 1
    kernel_size: 3
  }
}
layer {
  name: "relu5_1"
  type: "ReLU"
  bottom: "conv5_1"
  top: "conv5_1"
}
layer {
  name: "conv5_2"
  type: "Convolution"
  bottom: "conv5_1"
  top: "conv5_2"
  convolution_param {
    num_output: 512
    pad: 1
    kernel_size: 3
  }
}
layer {
  name: "relu5_2"
  type: "ReLU"
  bottom: "conv5_2"
  top: "conv5_2"
}
layer {
  name: "conv5_3"
  type: "Convolution"
  bottom: "conv5_2"
  top: "conv5_3"
  convolution_param {
    num_output: 512
    pad: 1
    kernel_size: 3
  }
}
layer {
  name: "relu5_3"
  type: "ReLU"
  bottom: "conv5_3"
  top: "conv5_3"
}
layer {
  name: "rpn_conv/3x3"
  type: "Convolution"
  bottom: "conv5_3"
  top: "rpn/output"
  convolution_param {
    num_output: 512
    pad: 1
    kernel_size: 3
    stride: 1
  }
}
layer {
  name: "rpn_relu/3x3"
  type: "ReLU"
  bottom: "rpn/output"
  top: "rpn/output"
}
layer {
  name: "rpn_cls_score"
  type: "Convolution"
  bottom: "rpn/output"
  top: "rpn_cls_score"
  convolution_param {
    num_output: 18
    pad: 0
    kernel_size: 1
    stride: 1
  }
}
layer {
  name: "rpn_bbox_pred"
  type: "Convolution"
  bottom: "rpn/output"
  top: "rpn_bbox_pred"
  convolution_param {
    num_output: 36
    pad: 0
    kernel_size: 1
    stride: 1
  }
}
layer {
  name: "rpn_cls_score_reshape"
  type: "Reshape"
  bottom: "rpn_cls_score"
  top: "rpn_cls_score_reshape"
  reshape_param {
    shape {
      dim: 0
      dim: 2
      dim: -1
      dim: 0
    }
  }
}
layer {
  name: "rpn_cls_prob"
  type: "Softmax"
  bottom: "rpn_cls_score_reshape"
  top: "rpn_cls_prob"
}
layer {
  name: "rpn_cls_prob_reshape"
  type: "Reshape"
  bottom: "rpn_cls_prob"
  top: "rpn_cls_prob_reshape"
  reshape_param {
    shape {
      dim: 0
      dim: 18
      dim: -1
      dim: 0
    }
  }
}
layer {
  name: "proposal"
  type: "Python"
  bottom: "rpn_cls_prob_reshape"
  bottom: "rpn_bbox_pred"
  bottom: "im_info"
  top: "rois"
  python_param {
    module: "rpn.proposal_layer"
    layer: "ProposalLayer"
    param_str: "\'feat_stride\': 16"
  }
}
layer {
  name: "roi_pool5"
  type: "ROIPooling"
  bottom: "conv5_3"
  bottom: "rois"
  top: "pool5"
  roi_pooling_param {
    pooled_h: 7
    pooled_w: 7
    spatial_scale: 0.0625
  }
}
layer {
  name: "fc6"
  type: "InnerProduct"
  bottom: "pool5"
  top: "fc6"
  inner_product_param {
    num_output: 4096
  }
}
layer {
  name: "relu6"
  type: "ReLU"
  bottom: "fc6"
  top: "fc6"
}
layer {
  name: "fc7"
  type: "InnerProduct"
  bottom: "fc6"
  top: "fc7"
  inner_product_param {
    num_output: 4096
  }
}
layer {
  name: "relu7"
  type: "ReLU"
  bottom: "fc7"
  top: "fc7"
}
layer {
  name: "cls_score"
  type: "InnerProduct"
  bottom: "fc7"
  top: "cls_score"
  inner_product_param {
    num_output: 2
  }
}
layer {
  name: "bbox_pred"
  type: "InnerProduct"
  bottom: "fc7"
  top: "bbox_pred"
  inner_product_param {
    num_output: 8
  }
}
layer {
  name: "cls_prob"
  type: "Softmax"
  bottom: "cls_score"
  top: "cls_prob"
}
I0912 05:01:26.391158 3438603 net.cpp:413] Input 0 -> data
I0912 05:01:26.399253 3438603 net.cpp:413] Input 1 -> im_info
I0912 05:01:26.399308 3438603 layer_factory.hpp:77] Creating layer conv1_1
I0912 05:01:26.399327 3438603 net.cpp:106] Creating Layer conv1_1
I0912 05:01:26.399332 3438603 net.cpp:454] conv1_1 <- data
I0912 05:01:26.399339 3438603 net.cpp:411] conv1_1 -> conv1_1
I0912 05:01:26.400820 3438603 net.cpp:150] Setting up conv1_1
I0912 05:01:26.400837 3438603 net.cpp:157] Top shape: 1 64 224 224 (3211264)
I0912 05:01:26.400841 3438603 net.cpp:165] Memory required for data: 12845056
I0912 05:01:26.400853 3438603 layer_factory.hpp:77] Creating layer relu1_1
I0912 05:01:26.400866 3438603 net.cpp:106] Creating Layer relu1_1
I0912 05:01:26.400871 3438603 net.cpp:454] relu1_1 <- conv1_1
I0912 05:01:26.400876 3438603 net.cpp:397] relu1_1 -> conv1_1 (in-place)
I0912 05:01:26.400889 3438603 net.cpp:150] Setting up relu1_1
I0912 05:01:26.400894 3438603 net.cpp:157] Top shape: 1 64 224 224 (3211264)
I0912 05:01:26.400897 3438603 net.cpp:165] Memory required for data: 25690112
I0912 05:01:26.400902 3438603 layer_factory.hpp:77] Creating layer conv1_2
I0912 05:01:26.400910 3438603 net.cpp:106] Creating Layer conv1_2
I0912 05:01:26.400914 3438603 net.cpp:454] conv1_2 <- conv1_1
I0912 05:01:26.400919 3438603 net.cpp:411] conv1_2 -> conv1_2
I0912 05:01:26.401231 3438603 net.cpp:150] Setting up conv1_2
I0912 05:01:26.401240 3438603 net.cpp:157] Top shape: 1 64 224 224 (3211264)
I0912 05:01:26.401244 3438603 net.cpp:165] Memory required for data: 38535168
I0912 05:01:26.401252 3438603 layer_factory.hpp:77] Creating layer relu1_2
I0912 05:01:26.401260 3438603 net.cpp:106] Creating Layer relu1_2
I0912 05:01:26.401264 3438603 net.cpp:454] relu1_2 <- conv1_2
I0912 05:01:26.401275 3438603 net.cpp:397] relu1_2 -> conv1_2 (in-place)
I0912 05:01:26.401281 3438603 net.cpp:150] Setting up relu1_2
I0912 05:01:26.401286 3438603 net.cpp:157] Top shape: 1 64 224 224 (3211264)
I0912 05:01:26.401290 3438603 net.cpp:165] Memory required for data: 51380224
I0912 05:01:26.401293 3438603 layer_factory.hpp:77] Creating layer pool1
I0912 05:01:26.401299 3438603 net.cpp:106] Creating Layer pool1
I0912 05:01:26.401304 3438603 net.cpp:454] pool1 <- conv1_2
I0912 05:01:26.401310 3438603 net.cpp:411] pool1 -> pool1
I0912 05:01:26.401362 3438603 net.cpp:150] Setting up pool1
I0912 05:01:26.401370 3438603 net.cpp:157] Top shape: 1 64 112 112 (802816)
I0912 05:01:26.401373 3438603 net.cpp:165] Memory required for data: 54591488
I0912 05:01:26.401377 3438603 layer_factory.hpp:77] Creating layer conv2_1
I0912 05:01:26.401386 3438603 net.cpp:106] Creating Layer conv2_1
I0912 05:01:26.401389 3438603 net.cpp:454] conv2_1 <- pool1
I0912 05:01:26.401394 3438603 net.cpp:411] conv2_1 -> conv2_1
I0912 05:01:26.402875 3438603 net.cpp:150] Setting up conv2_1
I0912 05:01:26.402889 3438603 net.cpp:157] Top shape: 1 128 112 112 (1605632)
I0912 05:01:26.402894 3438603 net.cpp:165] Memory required for data: 61014016
I0912 05:01:26.402902 3438603 layer_factory.hpp:77] Creating layer relu2_1
I0912 05:01:26.402910 3438603 net.cpp:106] Creating Layer relu2_1
I0912 05:01:26.402915 3438603 net.cpp:454] relu2_1 <- conv2_1
I0912 05:01:26.402920 3438603 net.cpp:397] relu2_1 -> conv2_1 (in-place)
I0912 05:01:26.402926 3438603 net.cpp:150] Setting up relu2_1
I0912 05:01:26.402931 3438603 net.cpp:157] Top shape: 1 128 112 112 (1605632)
I0912 05:01:26.402935 3438603 net.cpp:165] Memory required for data: 67436544
I0912 05:01:26.402938 3438603 layer_factory.hpp:77] Creating layer conv2_2
I0912 05:01:26.402945 3438603 net.cpp:106] Creating Layer conv2_2
I0912 05:01:26.402948 3438603 net.cpp:454] conv2_2 <- conv2_1
I0912 05:01:26.402956 3438603 net.cpp:411] conv2_2 -> conv2_2
I0912 05:01:26.403307 3438603 net.cpp:150] Setting up conv2_2
I0912 05:01:26.403317 3438603 net.cpp:157] Top shape: 1 128 112 112 (1605632)
I0912 05:01:26.403321 3438603 net.cpp:165] Memory required for data: 73859072
I0912 05:01:26.403327 3438603 layer_factory.hpp:77] Creating layer relu2_2
I0912 05:01:26.403333 3438603 net.cpp:106] Creating Layer relu2_2
I0912 05:01:26.403337 3438603 net.cpp:454] relu2_2 <- conv2_2
I0912 05:01:26.403347 3438603 net.cpp:397] relu2_2 -> conv2_2 (in-place)
I0912 05:01:26.403353 3438603 net.cpp:150] Setting up relu2_2
I0912 05:01:26.403358 3438603 net.cpp:157] Top shape: 1 128 112 112 (1605632)
I0912 05:01:26.403362 3438603 net.cpp:165] Memory required for data: 80281600
I0912 05:01:26.403365 3438603 layer_factory.hpp:77] Creating layer pool2
I0912 05:01:26.403370 3438603 net.cpp:106] Creating Layer pool2
I0912 05:01:26.403374 3438603 net.cpp:454] pool2 <- conv2_2
I0912 05:01:26.403380 3438603 net.cpp:411] pool2 -> pool2
I0912 05:01:26.403424 3438603 net.cpp:150] Setting up pool2
I0912 05:01:26.403431 3438603 net.cpp:157] Top shape: 1 128 56 56 (401408)
I0912 05:01:26.403434 3438603 net.cpp:165] Memory required for data: 81887232
I0912 05:01:26.403439 3438603 layer_factory.hpp:77] Creating layer conv3_1
I0912 05:01:26.403445 3438603 net.cpp:106] Creating Layer conv3_1
I0912 05:01:26.403450 3438603 net.cpp:454] conv3_1 <- pool2
I0912 05:01:26.403455 3438603 net.cpp:411] conv3_1 -> conv3_1
I0912 05:01:26.404698 3438603 net.cpp:150] Setting up conv3_1
I0912 05:01:26.404716 3438603 net.cpp:157] Top shape: 1 256 56 56 (802816)
I0912 05:01:26.404721 3438603 net.cpp:165] Memory required for data: 85098496
I0912 05:01:26.404731 3438603 layer_factory.hpp:77] Creating layer relu3_1
I0912 05:01:26.404737 3438603 net.cpp:106] Creating Layer relu3_1
I0912 05:01:26.404754 3438603 net.cpp:454] relu3_1 <- conv3_1
I0912 05:01:26.404760 3438603 net.cpp:397] relu3_1 -> conv3_1 (in-place)
I0912 05:01:26.404767 3438603 net.cpp:150] Setting up relu3_1
I0912 05:01:26.404773 3438603 net.cpp:157] Top shape: 1 256 56 56 (802816)
I0912 05:01:26.404778 3438603 net.cpp:165] Memory required for data: 88309760
I0912 05:01:26.404786 3438603 layer_factory.hpp:77] Creating layer conv3_2
I0912 05:01:26.404796 3438603 net.cpp:106] Creating Layer conv3_2
I0912 05:01:26.404801 3438603 net.cpp:454] conv3_2 <- conv3_1
I0912 05:01:26.404809 3438603 net.cpp:411] conv3_2 -> conv3_2
I0912 05:01:26.406594 3438603 net.cpp:150] Setting up conv3_2
I0912 05:01:26.406606 3438603 net.cpp:157] Top shape: 1 256 56 56 (802816)
I0912 05:01:26.406610 3438603 net.cpp:165] Memory required for data: 91521024
I0912 05:01:26.406616 3438603 layer_factory.hpp:77] Creating layer relu3_2
I0912 05:01:26.406625 3438603 net.cpp:106] Creating Layer relu3_2
I0912 05:01:26.406628 3438603 net.cpp:454] relu3_2 <- conv3_2
I0912 05:01:26.406633 3438603 net.cpp:397] relu3_2 -> conv3_2 (in-place)
I0912 05:01:26.406641 3438603 net.cpp:150] Setting up relu3_2
I0912 05:01:26.406646 3438603 net.cpp:157] Top shape: 1 256 56 56 (802816)
I0912 05:01:26.406648 3438603 net.cpp:165] Memory required for data: 94732288
I0912 05:01:26.406652 3438603 layer_factory.hpp:77] Creating layer conv3_3
I0912 05:01:26.406661 3438603 net.cpp:106] Creating Layer conv3_3
I0912 05:01:26.406664 3438603 net.cpp:454] conv3_3 <- conv3_2
I0912 05:01:26.406669 3438603 net.cpp:411] conv3_3 -> conv3_3
I0912 05:01:26.408293 3438603 net.cpp:150] Setting up conv3_3
I0912 05:01:26.408306 3438603 net.cpp:157] Top shape: 1 256 56 56 (802816)
I0912 05:01:26.408310 3438603 net.cpp:165] Memory required for data: 97943552
I0912 05:01:26.408316 3438603 layer_factory.hpp:77] Creating layer relu3_3
I0912 05:01:26.408324 3438603 net.cpp:106] Creating Layer relu3_3
I0912 05:01:26.408329 3438603 net.cpp:454] relu3_3 <- conv3_3
I0912 05:01:26.408334 3438603 net.cpp:397] relu3_3 -> conv3_3 (in-place)
I0912 05:01:26.408340 3438603 net.cpp:150] Setting up relu3_3
I0912 05:01:26.408345 3438603 net.cpp:157] Top shape: 1 256 56 56 (802816)
I0912 05:01:26.408349 3438603 net.cpp:165] Memory required for data: 101154816
I0912 05:01:26.408352 3438603 layer_factory.hpp:77] Creating layer pool3
I0912 05:01:26.408360 3438603 net.cpp:106] Creating Layer pool3
I0912 05:01:26.408365 3438603 net.cpp:454] pool3 <- conv3_3
I0912 05:01:26.408370 3438603 net.cpp:411] pool3 -> pool3
I0912 05:01:26.408427 3438603 net.cpp:150] Setting up pool3
I0912 05:01:26.408435 3438603 net.cpp:157] Top shape: 1 256 28 28 (200704)
I0912 05:01:26.408438 3438603 net.cpp:165] Memory required for data: 101957632
I0912 05:01:26.408442 3438603 layer_factory.hpp:77] Creating layer conv4_1
I0912 05:01:26.408452 3438603 net.cpp:106] Creating Layer conv4_1
I0912 05:01:26.408455 3438603 net.cpp:454] conv4_1 <- pool3
I0912 05:01:26.408462 3438603 net.cpp:411] conv4_1 -> conv4_1
I0912 05:01:26.411794 3438603 net.cpp:150] Setting up conv4_1
I0912 05:01:26.411808 3438603 net.cpp:157] Top shape: 1 512 28 28 (401408)
I0912 05:01:26.411813 3438603 net.cpp:165] Memory required for data: 103563264
I0912 05:01:26.411819 3438603 layer_factory.hpp:77] Creating layer relu4_1
I0912 05:01:26.411826 3438603 net.cpp:106] Creating Layer relu4_1
I0912 05:01:26.411830 3438603 net.cpp:454] relu4_1 <- conv4_1
I0912 05:01:26.411837 3438603 net.cpp:397] relu4_1 -> conv4_1 (in-place)
I0912 05:01:26.411844 3438603 net.cpp:150] Setting up relu4_1
I0912 05:01:26.411849 3438603 net.cpp:157] Top shape: 1 512 28 28 (401408)
I0912 05:01:26.411852 3438603 net.cpp:165] Memory required for data: 105168896
I0912 05:01:26.411856 3438603 layer_factory.hpp:77] Creating layer conv4_2
I0912 05:01:26.411862 3438603 net.cpp:106] Creating Layer conv4_2
I0912 05:01:26.411866 3438603 net.cpp:454] conv4_2 <- conv4_1
I0912 05:01:26.411872 3438603 net.cpp:411] conv4_2 -> conv4_2
I0912 05:01:26.417006 3438603 net.cpp:150] Setting up conv4_2
I0912 05:01:26.417023 3438603 net.cpp:157] Top shape: 1 512 28 28 (401408)
I0912 05:01:26.417027 3438603 net.cpp:165] Memory required for data: 106774528
I0912 05:01:26.417038 3438603 layer_factory.hpp:77] Creating layer relu4_2
I0912 05:01:26.417047 3438603 net.cpp:106] Creating Layer relu4_2
I0912 05:01:26.417052 3438603 net.cpp:454] relu4_2 <- conv4_2
I0912 05:01:26.417063 3438603 net.cpp:397] relu4_2 -> conv4_2 (in-place)
I0912 05:01:26.417071 3438603 net.cpp:150] Setting up relu4_2
I0912 05:01:26.417076 3438603 net.cpp:157] Top shape: 1 512 28 28 (401408)
I0912 05:01:26.417079 3438603 net.cpp:165] Memory required for data: 108380160
I0912 05:01:26.417083 3438603 layer_factory.hpp:77] Creating layer conv4_3
I0912 05:01:26.417091 3438603 net.cpp:106] Creating Layer conv4_3
I0912 05:01:26.417095 3438603 net.cpp:454] conv4_3 <- conv4_2
I0912 05:01:26.417100 3438603 net.cpp:411] conv4_3 -> conv4_3
I0912 05:01:26.422248 3438603 net.cpp:150] Setting up conv4_3
I0912 05:01:26.422268 3438603 net.cpp:157] Top shape: 1 512 28 28 (401408)
I0912 05:01:26.422273 3438603 net.cpp:165] Memory required for data: 109985792
I0912 05:01:26.422281 3438603 layer_factory.hpp:77] Creating layer relu4_3
I0912 05:01:26.422291 3438603 net.cpp:106] Creating Layer relu4_3
I0912 05:01:26.422296 3438603 net.cpp:454] relu4_3 <- conv4_3
I0912 05:01:26.422302 3438603 net.cpp:397] relu4_3 -> conv4_3 (in-place)
I0912 05:01:26.422308 3438603 net.cpp:150] Setting up relu4_3
I0912 05:01:26.422313 3438603 net.cpp:157] Top shape: 1 512 28 28 (401408)
I0912 05:01:26.422317 3438603 net.cpp:165] Memory required for data: 111591424
I0912 05:01:26.422322 3438603 layer_factory.hpp:77] Creating layer pool4
I0912 05:01:26.422327 3438603 net.cpp:106] Creating Layer pool4
I0912 05:01:26.422332 3438603 net.cpp:454] pool4 <- conv4_3
I0912 05:01:26.422339 3438603 net.cpp:411] pool4 -> pool4
I0912 05:01:26.422390 3438603 net.cpp:150] Setting up pool4
I0912 05:01:26.422399 3438603 net.cpp:157] Top shape: 1 512 14 14 (100352)
I0912 05:01:26.422401 3438603 net.cpp:165] Memory required for data: 111992832
I0912 05:01:26.422405 3438603 layer_factory.hpp:77] Creating layer conv5_1
I0912 05:01:26.422413 3438603 net.cpp:106] Creating Layer conv5_1
I0912 05:01:26.422417 3438603 net.cpp:454] conv5_1 <- pool4
I0912 05:01:26.422425 3438603 net.cpp:411] conv5_1 -> conv5_1
I0912 05:01:26.427561 3438603 net.cpp:150] Setting up conv5_1
I0912 05:01:26.427580 3438603 net.cpp:157] Top shape: 1 512 14 14 (100352)
I0912 05:01:26.427584 3438603 net.cpp:165] Memory required for data: 112394240
I0912 05:01:26.427592 3438603 layer_factory.hpp:77] Creating layer relu5_1
I0912 05:01:26.427600 3438603 net.cpp:106] Creating Layer relu5_1
I0912 05:01:26.427604 3438603 net.cpp:454] relu5_1 <- conv5_1
I0912 05:01:26.427610 3438603 net.cpp:397] relu5_1 -> conv5_1 (in-place)
I0912 05:01:26.427618 3438603 net.cpp:150] Setting up relu5_1
I0912 05:01:26.427621 3438603 net.cpp:157] Top shape: 1 512 14 14 (100352)
I0912 05:01:26.427625 3438603 net.cpp:165] Memory required for data: 112795648
I0912 05:01:26.427629 3438603 layer_factory.hpp:77] Creating layer conv5_2
I0912 05:01:26.427637 3438603 net.cpp:106] Creating Layer conv5_2
I0912 05:01:26.427642 3438603 net.cpp:454] conv5_2 <- conv5_1
I0912 05:01:26.427647 3438603 net.cpp:411] conv5_2 -> conv5_2
I0912 05:01:26.432811 3438603 net.cpp:150] Setting up conv5_2
I0912 05:01:26.432832 3438603 net.cpp:157] Top shape: 1 512 14 14 (100352)
I0912 05:01:26.432835 3438603 net.cpp:165] Memory required for data: 113197056
I0912 05:01:26.432843 3438603 layer_factory.hpp:77] Creating layer relu5_2
I0912 05:01:26.432852 3438603 net.cpp:106] Creating Layer relu5_2
I0912 05:01:26.432857 3438603 net.cpp:454] relu5_2 <- conv5_2
I0912 05:01:26.432862 3438603 net.cpp:397] relu5_2 -> conv5_2 (in-place)
I0912 05:01:26.432869 3438603 net.cpp:150] Setting up relu5_2
I0912 05:01:26.432874 3438603 net.cpp:157] Top shape: 1 512 14 14 (100352)
I0912 05:01:26.432878 3438603 net.cpp:165] Memory required for data: 113598464
I0912 05:01:26.432881 3438603 layer_factory.hpp:77] Creating layer conv5_3
I0912 05:01:26.432890 3438603 net.cpp:106] Creating Layer conv5_3
I0912 05:01:26.432894 3438603 net.cpp:454] conv5_3 <- conv5_2
I0912 05:01:26.432899 3438603 net.cpp:411] conv5_3 -> conv5_3
I0912 05:01:26.438076 3438603 net.cpp:150] Setting up conv5_3
I0912 05:01:26.438097 3438603 net.cpp:157] Top shape: 1 512 14 14 (100352)
I0912 05:01:26.438108 3438603 net.cpp:165] Memory required for data: 113999872
I0912 05:01:26.438117 3438603 layer_factory.hpp:77] Creating layer relu5_3
I0912 05:01:26.438123 3438603 net.cpp:106] Creating Layer relu5_3
I0912 05:01:26.438127 3438603 net.cpp:454] relu5_3 <- conv5_3
I0912 05:01:26.438138 3438603 net.cpp:397] relu5_3 -> conv5_3 (in-place)
I0912 05:01:26.438144 3438603 net.cpp:150] Setting up relu5_3
I0912 05:01:26.438149 3438603 net.cpp:157] Top shape: 1 512 14 14 (100352)
I0912 05:01:26.438153 3438603 net.cpp:165] Memory required for data: 114401280
I0912 05:01:26.438156 3438603 layer_factory.hpp:77] Creating layer conv5_3_relu5_3_0_split
I0912 05:01:26.438163 3438603 net.cpp:106] Creating Layer conv5_3_relu5_3_0_split
I0912 05:01:26.438166 3438603 net.cpp:454] conv5_3_relu5_3_0_split <- conv5_3
I0912 05:01:26.438172 3438603 net.cpp:411] conv5_3_relu5_3_0_split -> conv5_3_relu5_3_0_split_0
I0912 05:01:26.438179 3438603 net.cpp:411] conv5_3_relu5_3_0_split -> conv5_3_relu5_3_0_split_1
I0912 05:01:26.438227 3438603 net.cpp:150] Setting up conv5_3_relu5_3_0_split
I0912 05:01:26.438235 3438603 net.cpp:157] Top shape: 1 512 14 14 (100352)
I0912 05:01:26.438238 3438603 net.cpp:157] Top shape: 1 512 14 14 (100352)
I0912 05:01:26.438241 3438603 net.cpp:165] Memory required for data: 115204096
I0912 05:01:26.438246 3438603 layer_factory.hpp:77] Creating layer rpn_conv/3x3
I0912 05:01:26.438254 3438603 net.cpp:106] Creating Layer rpn_conv/3x3
I0912 05:01:26.438258 3438603 net.cpp:454] rpn_conv/3x3 <- conv5_3_relu5_3_0_split_0
I0912 05:01:26.438266 3438603 net.cpp:411] rpn_conv/3x3 -> rpn/output
I0912 05:01:26.443454 3438603 net.cpp:150] Setting up rpn_conv/3x3
I0912 05:01:26.443473 3438603 net.cpp:157] Top shape: 1 512 14 14 (100352)
I0912 05:01:26.443477 3438603 net.cpp:165] Memory required for data: 115605504
I0912 05:01:26.443485 3438603 layer_factory.hpp:77] Creating layer rpn_relu/3x3
I0912 05:01:26.443496 3438603 net.cpp:106] Creating Layer rpn_relu/3x3
I0912 05:01:26.443501 3438603 net.cpp:454] rpn_relu/3x3 <- rpn/output
I0912 05:01:26.443507 3438603 net.cpp:397] rpn_relu/3x3 -> rpn/output (in-place)
I0912 05:01:26.443514 3438603 net.cpp:150] Setting up rpn_relu/3x3
I0912 05:01:26.443518 3438603 net.cpp:157] Top shape: 1 512 14 14 (100352)
I0912 05:01:26.443522 3438603 net.cpp:165] Memory required for data: 116006912
I0912 05:01:26.443526 3438603 layer_factory.hpp:77] Creating layer rpn/output_rpn_relu/3x3_0_split
I0912 05:01:26.443531 3438603 net.cpp:106] Creating Layer rpn/output_rpn_relu/3x3_0_split
I0912 05:01:26.443536 3438603 net.cpp:454] rpn/output_rpn_relu/3x3_0_split <- rpn/output
I0912 05:01:26.443541 3438603 net.cpp:411] rpn/output_rpn_relu/3x3_0_split -> rpn/output_rpn_relu/3x3_0_split_0
I0912 05:01:26.443548 3438603 net.cpp:411] rpn/output_rpn_relu/3x3_0_split -> rpn/output_rpn_relu/3x3_0_split_1
I0912 05:01:26.443600 3438603 net.cpp:150] Setting up rpn/output_rpn_relu/3x3_0_split
I0912 05:01:26.443608 3438603 net.cpp:157] Top shape: 1 512 14 14 (100352)
I0912 05:01:26.443611 3438603 net.cpp:157] Top shape: 1 512 14 14 (100352)
I0912 05:01:26.443615 3438603 net.cpp:165] Memory required for data: 116809728
I0912 05:01:26.443619 3438603 layer_factory.hpp:77] Creating layer rpn_cls_score
I0912 05:01:26.443626 3438603 net.cpp:106] Creating Layer rpn_cls_score
I0912 05:01:26.443629 3438603 net.cpp:454] rpn_cls_score <- rpn/output_rpn_relu/3x3_0_split_0
I0912 05:01:26.443636 3438603 net.cpp:411] rpn_cls_score -> rpn_cls_score
I0912 05:01:26.443934 3438603 net.cpp:150] Setting up rpn_cls_score
I0912 05:01:26.443943 3438603 net.cpp:157] Top shape: 1 18 14 14 (3528)
I0912 05:01:26.443948 3438603 net.cpp:165] Memory required for data: 116823840
I0912 05:01:26.443953 3438603 layer_factory.hpp:77] Creating layer rpn_bbox_pred
I0912 05:01:26.443963 3438603 net.cpp:106] Creating Layer rpn_bbox_pred
I0912 05:01:26.443966 3438603 net.cpp:454] rpn_bbox_pred <- rpn/output_rpn_relu/3x3_0_split_1
I0912 05:01:26.443971 3438603 net.cpp:411] rpn_bbox_pred -> rpn_bbox_pred
I0912 05:01:26.444278 3438603 net.cpp:150] Setting up rpn_bbox_pred
I0912 05:01:26.444293 3438603 net.cpp:157] Top shape: 1 36 14 14 (7056)
I0912 05:01:26.444298 3438603 net.cpp:165] Memory required for data: 116852064
I0912 05:01:26.444303 3438603 layer_factory.hpp:77] Creating layer rpn_cls_score_reshape
I0912 05:01:26.444313 3438603 net.cpp:106] Creating Layer rpn_cls_score_reshape
I0912 05:01:26.444316 3438603 net.cpp:454] rpn_cls_score_reshape <- rpn_cls_score
I0912 05:01:26.444324 3438603 net.cpp:411] rpn_cls_score_reshape -> rpn_cls_score_reshape
I0912 05:01:26.444355 3438603 net.cpp:150] Setting up rpn_cls_score_reshape
I0912 05:01:26.444362 3438603 net.cpp:157] Top shape: 1 2 126 14 (3528)
I0912 05:01:26.444365 3438603 net.cpp:165] Memory required for data: 116866176
I0912 05:01:26.444370 3438603 layer_factory.hpp:77] Creating layer rpn_cls_prob
I0912 05:01:26.444377 3438603 net.cpp:106] Creating Layer rpn_cls_prob
I0912 05:01:26.444381 3438603 net.cpp:454] rpn_cls_prob <- rpn_cls_score_reshape
I0912 05:01:26.444386 3438603 net.cpp:411] rpn_cls_prob -> rpn_cls_prob
I0912 05:01:26.444494 3438603 net.cpp:150] Setting up rpn_cls_prob
I0912 05:01:26.444504 3438603 net.cpp:157] Top shape: 1 2 126 14 (3528)
I0912 05:01:26.444507 3438603 net.cpp:165] Memory required for data: 116880288
I0912 05:01:26.444512 3438603 layer_factory.hpp:77] Creating layer rpn_cls_prob_reshape
I0912 05:01:26.444519 3438603 net.cpp:106] Creating Layer rpn_cls_prob_reshape
I0912 05:01:26.444522 3438603 net.cpp:454] rpn_cls_prob_reshape <- rpn_cls_prob
I0912 05:01:26.444530 3438603 net.cpp:411] rpn_cls_prob_reshape -> rpn_cls_prob_reshape
I0912 05:01:26.444561 3438603 net.cpp:150] Setting up rpn_cls_prob_reshape
I0912 05:01:26.444567 3438603 net.cpp:157] Top shape: 1 18 14 14 (3528)
I0912 05:01:26.444571 3438603 net.cpp:165] Memory required for data: 116894400
I0912 05:01:26.444574 3438603 layer_factory.hpp:77] Creating layer proposal
I0912 05:01:26.465035 3438603 net.cpp:106] Creating Layer proposal
I0912 05:01:26.465061 3438603 net.cpp:454] proposal <- rpn_cls_prob_reshape
I0912 05:01:26.465068 3438603 net.cpp:454] proposal <- rpn_bbox_pred
I0912 05:01:26.465075 3438603 net.cpp:454] proposal <- im_info
I0912 05:01:26.465080 3438603 net.cpp:411] proposal -> rois
I0912 05:01:26.466125 3438603 net.cpp:150] Setting up proposal
I0912 05:01:26.466140 3438603 net.cpp:157] Top shape: 1 5 (5)
I0912 05:01:26.466145 3438603 net.cpp:165] Memory required for data: 116894420
I0912 05:01:26.466150 3438603 layer_factory.hpp:77] Creating layer roi_pool5
I0912 05:01:26.466158 3438603 net.cpp:106] Creating Layer roi_pool5
I0912 05:01:26.466163 3438603 net.cpp:454] roi_pool5 <- conv5_3_relu5_3_0_split_1
I0912 05:01:26.466168 3438603 net.cpp:454] roi_pool5 <- rois
I0912 05:01:26.466174 3438603 net.cpp:411] roi_pool5 -> pool5
I0912 05:01:26.466183 3438603 roi_pooling_layer.cpp:30] Spatial scale: 0.0625
I0912 05:01:26.466243 3438603 net.cpp:150] Setting up roi_pool5
I0912 05:01:26.466250 3438603 net.cpp:157] Top shape: 1 512 7 7 (25088)
I0912 05:01:26.466254 3438603 net.cpp:165] Memory required for data: 116994772
I0912 05:01:26.466259 3438603 layer_factory.hpp:77] Creating layer fc6
I0912 05:01:26.466265 3438603 net.cpp:106] Creating Layer fc6
I0912 05:01:26.466270 3438603 net.cpp:454] fc6 <- pool5
I0912 05:01:26.466275 3438603 net.cpp:411] fc6 -> fc6
I0912 05:01:26.691478 3438603 net.cpp:150] Setting up fc6
I0912 05:01:26.691552 3438603 net.cpp:157] Top shape: 1 4096 (4096)
I0912 05:01:26.691557 3438603 net.cpp:165] Memory required for data: 117011156
I0912 05:01:26.691579 3438603 layer_factory.hpp:77] Creating layer relu6
I0912 05:01:26.691603 3438603 net.cpp:106] Creating Layer relu6
I0912 05:01:26.691611 3438603 net.cpp:454] relu6 <- fc6
I0912 05:01:26.691618 3438603 net.cpp:397] relu6 -> fc6 (in-place)
I0912 05:01:26.691629 3438603 net.cpp:150] Setting up relu6
I0912 05:01:26.691634 3438603 net.cpp:157] Top shape: 1 4096 (4096)
I0912 05:01:26.691637 3438603 net.cpp:165] Memory required for data: 117027540
I0912 05:01:26.691642 3438603 layer_factory.hpp:77] Creating layer fc7
I0912 05:01:26.691649 3438603 net.cpp:106] Creating Layer fc7
I0912 05:01:26.691664 3438603 net.cpp:454] fc7 <- fc6
I0912 05:01:26.691670 3438603 net.cpp:411] fc7 -> fc7
I0912 05:01:26.728952 3438603 net.cpp:150] Setting up fc7
I0912 05:01:26.729006 3438603 net.cpp:157] Top shape: 1 4096 (4096)
I0912 05:01:26.729010 3438603 net.cpp:165] Memory required for data: 117043924
I0912 05:01:26.729022 3438603 layer_factory.hpp:77] Creating layer relu7
I0912 05:01:26.729034 3438603 net.cpp:106] Creating Layer relu7
I0912 05:01:26.729041 3438603 net.cpp:454] relu7 <- fc7
I0912 05:01:26.729049 3438603 net.cpp:397] relu7 -> fc7 (in-place)
I0912 05:01:26.729060 3438603 net.cpp:150] Setting up relu7
I0912 05:01:26.729064 3438603 net.cpp:157] Top shape: 1 4096 (4096)
I0912 05:01:26.729068 3438603 net.cpp:165] Memory required for data: 117060308
I0912 05:01:26.729073 3438603 layer_factory.hpp:77] Creating layer fc7_relu7_0_split
I0912 05:01:26.729079 3438603 net.cpp:106] Creating Layer fc7_relu7_0_split
I0912 05:01:26.729082 3438603 net.cpp:454] fc7_relu7_0_split <- fc7
I0912 05:01:26.729087 3438603 net.cpp:411] fc7_relu7_0_split -> fc7_relu7_0_split_0
I0912 05:01:26.729094 3438603 net.cpp:411] fc7_relu7_0_split -> fc7_relu7_0_split_1
I0912 05:01:26.729140 3438603 net.cpp:150] Setting up fc7_relu7_0_split
I0912 05:01:26.729147 3438603 net.cpp:157] Top shape: 1 4096 (4096)
I0912 05:01:26.729151 3438603 net.cpp:157] Top shape: 1 4096 (4096)
I0912 05:01:26.729156 3438603 net.cpp:165] Memory required for data: 117093076
I0912 05:01:26.729159 3438603 layer_factory.hpp:77] Creating layer cls_score
I0912 05:01:26.729167 3438603 net.cpp:106] Creating Layer cls_score
I0912 05:01:26.729171 3438603 net.cpp:454] cls_score <- fc7_relu7_0_split_0
I0912 05:01:26.729178 3438603 net.cpp:411] cls_score -> cls_score
I0912 05:01:26.729305 3438603 net.cpp:150] Setting up cls_score
I0912 05:01:26.729313 3438603 net.cpp:157] Top shape: 1 2 (2)
I0912 05:01:26.729317 3438603 net.cpp:165] Memory required for data: 117093084
I0912 05:01:26.729323 3438603 layer_factory.hpp:77] Creating layer bbox_pred
I0912 05:01:26.729329 3438603 net.cpp:106] Creating Layer bbox_pred
I0912 05:01:26.729334 3438603 net.cpp:454] bbox_pred <- fc7_relu7_0_split_1
I0912 05:01:26.729339 3438603 net.cpp:411] bbox_pred -> bbox_pred
I0912 05:01:26.729512 3438603 net.cpp:150] Setting up bbox_pred
I0912 05:01:26.729521 3438603 net.cpp:157] Top shape: 1 8 (8)
I0912 05:01:26.729526 3438603 net.cpp:165] Memory required for data: 117093116
I0912 05:01:26.729532 3438603 layer_factory.hpp:77] Creating layer cls_prob
I0912 05:01:26.729538 3438603 net.cpp:106] Creating Layer cls_prob
I0912 05:01:26.729542 3438603 net.cpp:454] cls_prob <- cls_score
I0912 05:01:26.729548 3438603 net.cpp:411] cls_prob -> cls_prob
I0912 05:01:26.729619 3438603 net.cpp:150] Setting up cls_prob
I0912 05:01:26.729624 3438603 net.cpp:157] Top shape: 1 2 (2)
I0912 05:01:26.729629 3438603 net.cpp:165] Memory required for data: 117093124
I0912 05:01:26.729632 3438603 net.cpp:228] cls_prob does not need backward computation.
I0912 05:01:26.729636 3438603 net.cpp:228] bbox_pred does not need backward computation.
I0912 05:01:26.729640 3438603 net.cpp:228] cls_score does not need backward computation.
I0912 05:01:26.729645 3438603 net.cpp:228] fc7_relu7_0_split does not need backward computation.
…
