WARNING: Logging before InitGoogleLogging() is written to STDERR
I1125 06:09:13.538046 1767870 net.cpp:49] Initializing net from parameters: 
name: "ZF"
input: "data"
input: "im_info"
state {
  phase: TEST
}
input_shape {
  dim: 1
  dim: 3
  dim: 224
  dim: 224
}
input_shape {
  dim: 1
  dim: 3
}
layer {
  name: "conv1"
  type: "Convolution"
  bottom: "data"
  top: "conv1"
  convolution_param {
    num_output: 96
    pad: 3
    kernel_size: 7
    stride: 2
  }
}
layer {
  name: "relu1"
  type: "ReLU"
  bottom: "conv1"
  top: "conv1"
}
layer {
  name: "norm1"
  type: "LRN"
  bottom: "conv1"
  top: "norm1"
  lrn_param {
    local_size: 3
    alpha: 5e-05
    beta: 0.75
    norm_region: WITHIN_CHANNEL
    engine: CAFFE
  }
}
layer {
  name: "pool1"
  type: "Pooling"
  bottom: "norm1"
  top: "pool1"
  pooling_param {
    pool: MAX
    kernel_size: 3
    stride: 2
    pad: 1
  }
}
layer {
  name: "conv2"
  type: "Convolution"
  bottom: "pool1"
  top: "conv2"
  convolution_param {
    num_output: 256
    pad: 2
    kernel_size: 5
    stride: 2
  }
}
layer {
  name: "relu2"
  type: "ReLU"
  bottom: "conv2"
  top: "conv2"
}
layer {
  name: "norm2"
  type: "LRN"
  bottom: "conv2"
  top: "norm2"
  lrn_param {
    local_size: 3
    alpha: 5e-05
    beta: 0.75
    norm_region: WITHIN_CHANNEL
    engine: CAFFE
  }
}
layer {
  name: "pool2"
  type: "Pooling"
  bottom: "norm2"
  top: "pool2"
  pooling_param {
    pool: MAX
    kernel_size: 3
    stride: 2
    pad: 1
  }
}
layer {
  name: "conv3"
  type: "Convolution"
  bottom: "pool2"
  top: "conv3"
  convolution_param {
    num_output: 384
    pad: 1
    kernel_size: 3
    stride: 1
  }
}
layer {
  name: "relu3"
  type: "ReLU"
  bottom: "conv3"
  top: "conv3"
}
layer {
  name: "conv4"
  type: "Convolution"
  bottom: "conv3"
  top: "conv4"
  convolution_param {
    num_output: 384
    pad: 1
    kernel_size: 3
    stride: 1
  }
}
layer {
  name: "relu4"
  type: "ReLU"
  bottom: "conv4"
  top: "conv4"
}
layer {
  name: "conv5"
  type: "Convolution"
  bottom: "conv4"
  top: "conv5"
  convolution_param {
    num_output: 256
    pad: 1
    kernel_size: 3
    stride: 1
  }
}
layer {
  name: "relu5"
  type: "ReLU"
  bottom: "conv5"
  top: "conv5"
}
layer {
  name: "rpn_conv/3x3"
  type: "Convolution"
  bottom: "conv5"
  top: "rpn/output"
  convolution_param {
    num_output: 256
    pad: 1
    kernel_size: 3
    stride: 1
    weight_filler {
      type: "gaussian"
      std: 0.01
    }
    bias_filler {
      type: "constant"
      value: 0
    }
  }
}
layer {
  name: "rpn_relu/3x3"
  type: "ReLU"
  bottom: "rpn/output"
  top: "rpn/output"
}
layer {
  name: "rpn_cls_score"
  type: "Convolution"
  bottom: "rpn/output"
  top: "rpn_cls_score"
  convolution_param {
    num_output: 18
    pad: 0
    kernel_size: 1
    stride: 1
    weight_filler {
      type: "gaussian"
      std: 0.01
    }
    bias_filler {
      type: "constant"
      value: 0
    }
  }
}
layer {
  name: "rpn_bbox_pred"
  type: "Convolution"
  bottom: "rpn/output"
  top: "rpn_bbox_pred"
  convolution_param {
    num_output: 36
    pad: 0
    kernel_size: 1
    stride: 1
    weight_filler {
      type: "gaussian"
      std: 0.01
    }
    bias_filler {
      type: "constant"
      value: 0
    }
  }
}
layer {
  name: "rpn_cls_score_reshape"
  type: "Reshape"
  bottom: "rpn_cls_score"
  top: "rpn_cls_score_reshape"
  reshape_param {
    shape {
      dim: 0
      dim: 2
      dim: -1
      dim: 0
    }
  }
}
layer {
  name: "rpn_cls_prob"
  type: "Softmax"
  bottom: "rpn_cls_score_reshape"
  top: "rpn_cls_prob"
}
layer {
  name: "rpn_cls_prob_reshape"
  type: "Reshape"
  bottom: "rpn_cls_prob"
  top: "rpn_cls_prob_reshape"
  reshape_param {
    shape {
      dim: 0
      dim: 18
      dim: -1
      dim: 0
    }
  }
}
layer {
  name: "proposal"
  type: "Python"
  bottom: "rpn_cls_prob_reshape"
  bottom: "rpn_bbox_pred"
  bottom: "im_info"
  top: "rois"
  python_param {
    module: "rpn.proposal_layer"
    layer: "ProposalLayer"
    param_str: "\'feat_stride\': 16"
  }
}
layer {
  name: "roi_pool_conv5"
  type: "ROIPooling"
  bottom: "conv5"
  bottom: "rois"
  top: "roi_pool_conv5"
  roi_pooling_param {
    pooled_h: 6
    pooled_w: 6
    spatial_scale: 0.0625
  }
}
layer {
  name: "fc6"
  type: "InnerProduct"
  bottom: "roi_pool_conv5"
  top: "fc6"
  inner_product_param {
    num_output: 4096
  }
}
layer {
  name: "relu6"
  type: "ReLU"
  bottom: "fc6"
  top: "fc6"
}
layer {
  name: "drop6"
  type: "Dropout"
  bottom: "fc6"
  top: "fc6"
  dropout_param {
    dropout_ratio: 0.5
    scale_train: false
  }
}
layer {
  name: "fc7"
  type: "InnerProduct"
  bottom: "fc6"
  top: "fc7"
  inner_product_param {
    num_output: 4096
  }
}
layer {
  name: "relu7"
  type: "ReLU"
  bottom: "fc7"
  top: "fc7"
}
layer {
  name: "drop7"
  type: "Dropout"
  bottom: "fc7"
  top: "fc7"
  dropout_param {
    dropout_ratio: 0.5
    scale_train: false
  }
}
layer {
  name: "cls_score"
  type: "InnerProduct"
  bottom: "fc7"
  top: "cls_score"
  inner_product_param {
    num_output: 2
  }
}
layer {
  name: "bbox_pred"
  type: "InnerProduct"
  bottom: "fc7"
  top: "bbox_pred"
  inner_product_param {
    num_output: 8
  }
}
layer {
  name: "cls_prob"
  type: "Softmax"
  bottom: "cls_score"
  top: "cls_prob"
  loss_param {
    ignore_label: -1
    normalize: true
  }
}
I1125 06:09:13.538323 1767870 net.cpp:413] Input 0 -> data
I1125 06:09:13.555141 1767870 net.cpp:413] Input 1 -> im_info
I1125 06:09:13.555250 1767870 layer_factory.hpp:77] Creating layer conv1
I1125 06:09:13.555289 1767870 net.cpp:106] Creating Layer conv1
I1125 06:09:13.555299 1767870 net.cpp:454] conv1 <- data
I1125 06:09:13.555315 1767870 net.cpp:411] conv1 -> conv1
I1125 06:09:13.557018 1767870 net.cpp:150] Setting up conv1
I1125 06:09:13.557052 1767870 net.cpp:157] Top shape: 1 96 112 112 (1204224)
I1125 06:09:13.557062 1767870 net.cpp:165] Memory required for data: 4816896
I1125 06:09:13.557088 1767870 layer_factory.hpp:77] Creating layer relu1
I1125 06:09:13.557106 1767870 net.cpp:106] Creating Layer relu1
I1125 06:09:13.557114 1767870 net.cpp:454] relu1 <- conv1
I1125 06:09:13.557128 1767870 net.cpp:397] relu1 -> conv1 (in-place)
I1125 06:09:13.557149 1767870 net.cpp:150] Setting up relu1
I1125 06:09:13.557160 1767870 net.cpp:157] Top shape: 1 96 112 112 (1204224)
I1125 06:09:13.557168 1767870 net.cpp:165] Memory required for data: 9633792
I1125 06:09:13.557176 1767870 layer_factory.hpp:77] Creating layer norm1
I1125 06:09:13.557189 1767870 net.cpp:106] Creating Layer norm1
I1125 06:09:13.557198 1767870 net.cpp:454] norm1 <- conv1
I1125 06:09:13.557211 1767870 net.cpp:411] norm1 -> norm1
I1125 06:09:13.557478 1767870 net.cpp:150] Setting up norm1
I1125 06:09:13.557497 1767870 net.cpp:157] Top shape: 1 96 112 112 (1204224)
I1125 06:09:13.557505 1767870 net.cpp:165] Memory required for data: 14450688
I1125 06:09:13.557514 1767870 layer_factory.hpp:77] Creating layer pool1
I1125 06:09:13.557528 1767870 net.cpp:106] Creating Layer pool1
I1125 06:09:13.557538 1767870 net.cpp:454] pool1 <- norm1
I1125 06:09:13.557548 1767870 net.cpp:411] pool1 -> pool1
I1125 06:09:13.557632 1767870 net.cpp:150] Setting up pool1
I1125 06:09:13.557648 1767870 net.cpp:157] Top shape: 1 96 57 57 (311904)
I1125 06:09:13.557657 1767870 net.cpp:165] Memory required for data: 15698304
I1125 06:09:13.557664 1767870 layer_factory.hpp:77] Creating layer conv2
I1125 06:09:13.557683 1767870 net.cpp:106] Creating Layer conv2
I1125 06:09:13.557693 1767870 net.cpp:454] conv2 <- pool1
I1125 06:09:13.557708 1767870 net.cpp:411] conv2 -> conv2
I1125 06:09:13.562083 1767870 net.cpp:150] Setting up conv2
I1125 06:09:13.562111 1767870 net.cpp:157] Top shape: 1 256 29 29 (215296)
I1125 06:09:13.562121 1767870 net.cpp:165] Memory required for data: 16559488
I1125 06:09:13.562139 1767870 layer_factory.hpp:77] Creating layer relu2
I1125 06:09:13.562156 1767870 net.cpp:106] Creating Layer relu2
I1125 06:09:13.562165 1767870 net.cpp:454] relu2 <- conv2
I1125 06:09:13.562177 1767870 net.cpp:397] relu2 -> conv2 (in-place)
I1125 06:09:13.562191 1767870 net.cpp:150] Setting up relu2
I1125 06:09:13.562201 1767870 net.cpp:157] Top shape: 1 256 29 29 (215296)
I1125 06:09:13.562218 1767870 net.cpp:165] Memory required for data: 17420672
I1125 06:09:13.562227 1767870 layer_factory.hpp:77] Creating layer norm2
I1125 06:09:13.562242 1767870 net.cpp:106] Creating Layer norm2
I1125 06:09:13.562249 1767870 net.cpp:454] norm2 <- conv2
I1125 06:09:13.562259 1767870 net.cpp:411] norm2 -> norm2
I1125 06:09:13.562497 1767870 net.cpp:150] Setting up norm2
I1125 06:09:13.562515 1767870 net.cpp:157] Top shape: 1 256 29 29 (215296)
I1125 06:09:13.562522 1767870 net.cpp:165] Memory required for data: 18281856
I1125 06:09:13.562530 1767870 layer_factory.hpp:77] Creating layer pool2
I1125 06:09:13.562541 1767870 net.cpp:106] Creating Layer pool2
I1125 06:09:13.562549 1767870 net.cpp:454] pool2 <- norm2
I1125 06:09:13.562558 1767870 net.cpp:411] pool2 -> pool2
I1125 06:09:13.562638 1767870 net.cpp:150] Setting up pool2
I1125 06:09:13.562655 1767870 net.cpp:157] Top shape: 1 256 15 15 (57600)
I1125 06:09:13.562664 1767870 net.cpp:165] Memory required for data: 18512256
I1125 06:09:13.562671 1767870 layer_factory.hpp:77] Creating layer conv3
I1125 06:09:13.562686 1767870 net.cpp:106] Creating Layer conv3
I1125 06:09:13.562695 1767870 net.cpp:454] conv3 <- pool2
I1125 06:09:13.562708 1767870 net.cpp:411] conv3 -> conv3
I1125 06:09:13.566898 1767870 net.cpp:150] Setting up conv3
I1125 06:09:13.566927 1767870 net.cpp:157] Top shape: 1 384 15 15 (86400)
I1125 06:09:13.566936 1767870 net.cpp:165] Memory required for data: 18857856
I1125 06:09:13.566954 1767870 layer_factory.hpp:77] Creating layer relu3
I1125 06:09:13.566967 1767870 net.cpp:106] Creating Layer relu3
I1125 06:09:13.566979 1767870 net.cpp:454] relu3 <- conv3
I1125 06:09:13.566990 1767870 net.cpp:397] relu3 -> conv3 (in-place)
I1125 06:09:13.567003 1767870 net.cpp:150] Setting up relu3
I1125 06:09:13.567013 1767870 net.cpp:157] Top shape: 1 384 15 15 (86400)
I1125 06:09:13.567020 1767870 net.cpp:165] Memory required for data: 19203456
I1125 06:09:13.567028 1767870 layer_factory.hpp:77] Creating layer conv4
I1125 06:09:13.567040 1767870 net.cpp:106] Creating Layer conv4
I1125 06:09:13.567049 1767870 net.cpp:454] conv4 <- conv3
I1125 06:09:13.567067 1767870 net.cpp:411] conv4 -> conv4
I1125 06:09:13.572880 1767870 net.cpp:150] Setting up conv4
I1125 06:09:13.572911 1767870 net.cpp:157] Top shape: 1 384 15 15 (86400)
I1125 06:09:13.572918 1767870 net.cpp:165] Memory required for data: 19549056
I1125 06:09:13.572932 1767870 layer_factory.hpp:77] Creating layer relu4
I1125 06:09:13.572943 1767870 net.cpp:106] Creating Layer relu4
I1125 06:09:13.572952 1767870 net.cpp:454] relu4 <- conv4
I1125 06:09:13.572962 1767870 net.cpp:397] relu4 -> conv4 (in-place)
I1125 06:09:13.572974 1767870 net.cpp:150] Setting up relu4
I1125 06:09:13.572983 1767870 net.cpp:157] Top shape: 1 384 15 15 (86400)
I1125 06:09:13.572990 1767870 net.cpp:165] Memory required for data: 19894656
I1125 06:09:13.572998 1767870 layer_factory.hpp:77] Creating layer conv5
I1125 06:09:13.573014 1767870 net.cpp:106] Creating Layer conv5
I1125 06:09:13.573021 1767870 net.cpp:454] conv5 <- conv4
I1125 06:09:13.573035 1767870 net.cpp:411] conv5 -> conv5
I1125 06:09:13.577160 1767870 net.cpp:150] Setting up conv5
I1125 06:09:13.577189 1767870 net.cpp:157] Top shape: 1 256 15 15 (57600)
I1125 06:09:13.577198 1767870 net.cpp:165] Memory required for data: 20125056
I1125 06:09:13.577215 1767870 layer_factory.hpp:77] Creating layer relu5
I1125 06:09:13.577231 1767870 net.cpp:106] Creating Layer relu5
I1125 06:09:13.577239 1767870 net.cpp:454] relu5 <- conv5
I1125 06:09:13.577250 1767870 net.cpp:397] relu5 -> conv5 (in-place)
I1125 06:09:13.577262 1767870 net.cpp:150] Setting up relu5
I1125 06:09:13.577272 1767870 net.cpp:157] Top shape: 1 256 15 15 (57600)
I1125 06:09:13.577280 1767870 net.cpp:165] Memory required for data: 20355456
I1125 06:09:13.577287 1767870 layer_factory.hpp:77] Creating layer conv5_relu5_0_split
I1125 06:09:13.577297 1767870 net.cpp:106] Creating Layer conv5_relu5_0_split
I1125 06:09:13.577304 1767870 net.cpp:454] conv5_relu5_0_split <- conv5
I1125 06:09:13.577313 1767870 net.cpp:411] conv5_relu5_0_split -> conv5_relu5_0_split_0
I1125 06:09:13.577337 1767870 net.cpp:411] conv5_relu5_0_split -> conv5_relu5_0_split_1
I1125 06:09:13.577426 1767870 net.cpp:150] Setting up conv5_relu5_0_split
I1125 06:09:13.577440 1767870 net.cpp:157] Top shape: 1 256 15 15 (57600)
I1125 06:09:13.577450 1767870 net.cpp:157] Top shape: 1 256 15 15 (57600)
I1125 06:09:13.577457 1767870 net.cpp:165] Memory required for data: 20816256
I1125 06:09:13.577464 1767870 layer_factory.hpp:77] Creating layer rpn_conv/3x3
I1125 06:09:13.577483 1767870 net.cpp:106] Creating Layer rpn_conv/3x3
I1125 06:09:13.577492 1767870 net.cpp:454] rpn_conv/3x3 <- conv5_relu5_0_split_0
I1125 06:09:13.577503 1767870 net.cpp:411] rpn_conv/3x3 -> rpn/output
I1125 06:09:13.609743 1767870 net.cpp:150] Setting up rpn_conv/3x3
I1125 06:09:13.609784 1767870 net.cpp:157] Top shape: 1 256 15 15 (57600)
I1125 06:09:13.609791 1767870 net.cpp:165] Memory required for data: 21046656
I1125 06:09:13.609804 1767870 layer_factory.hpp:77] Creating layer rpn_relu/3x3
I1125 06:09:13.609824 1767870 net.cpp:106] Creating Layer rpn_relu/3x3
I1125 06:09:13.609833 1767870 net.cpp:454] rpn_relu/3x3 <- rpn/output
I1125 06:09:13.609841 1767870 net.cpp:397] rpn_relu/3x3 -> rpn/output (in-place)
I1125 06:09:13.609854 1767870 net.cpp:150] Setting up rpn_relu/3x3
I1125 06:09:13.609863 1767870 net.cpp:157] Top shape: 1 256 15 15 (57600)
I1125 06:09:13.609869 1767870 net.cpp:165] Memory required for data: 21277056
I1125 06:09:13.609874 1767870 layer_factory.hpp:77] Creating layer rpn/output_rpn_relu/3x3_0_split
I1125 06:09:13.609884 1767870 net.cpp:106] Creating Layer rpn/output_rpn_relu/3x3_0_split
I1125 06:09:13.609889 1767870 net.cpp:454] rpn/output_rpn_relu/3x3_0_split <- rpn/output
I1125 06:09:13.609900 1767870 net.cpp:411] rpn/output_rpn_relu/3x3_0_split -> rpn/output_rpn_relu/3x3_0_split_0
I1125 06:09:13.609911 1767870 net.cpp:411] rpn/output_rpn_relu/3x3_0_split -> rpn/output_rpn_relu/3x3_0_split_1
I1125 06:09:13.609989 1767870 net.cpp:150] Setting up rpn/output_rpn_relu/3x3_0_split
I1125 06:09:13.610002 1767870 net.cpp:157] Top shape: 1 256 15 15 (57600)
I1125 06:09:13.610009 1767870 net.cpp:157] Top shape: 1 256 15 15 (57600)
I1125 06:09:13.610015 1767870 net.cpp:165] Memory required for data: 21737856
I1125 06:09:13.610021 1767870 layer_factory.hpp:77] Creating layer rpn_cls_score
I1125 06:09:13.610038 1767870 net.cpp:106] Creating Layer rpn_cls_score
I1125 06:09:13.610045 1767870 net.cpp:454] rpn_cls_score <- rpn/output_rpn_relu/3x3_0_split_0
I1125 06:09:13.610057 1767870 net.cpp:411] rpn_cls_score -> rpn_cls_score
I1125 06:09:13.610746 1767870 net.cpp:150] Setting up rpn_cls_score
I1125 06:09:13.610762 1767870 net.cpp:157] Top shape: 1 18 15 15 (4050)
I1125 06:09:13.610769 1767870 net.cpp:165] Memory required for data: 21754056
I1125 06:09:13.610780 1767870 layer_factory.hpp:77] Creating layer rpn_bbox_pred
I1125 06:09:13.610796 1767870 net.cpp:106] Creating Layer rpn_bbox_pred
I1125 06:09:13.610803 1767870 net.cpp:454] rpn_bbox_pred <- rpn/output_rpn_relu/3x3_0_split_1
I1125 06:09:13.610813 1767870 net.cpp:411] rpn_bbox_pred -> rpn_bbox_pred
I1125 06:09:13.611712 1767870 net.cpp:150] Setting up rpn_bbox_pred
I1125 06:09:13.611732 1767870 net.cpp:157] Top shape: 1 36 15 15 (8100)
I1125 06:09:13.611738 1767870 net.cpp:165] Memory required for data: 21786456
I1125 06:09:13.611748 1767870 layer_factory.hpp:77] Creating layer rpn_cls_score_reshape
I1125 06:09:13.611771 1767870 net.cpp:106] Creating Layer rpn_cls_score_reshape
I1125 06:09:13.611778 1767870 net.cpp:454] rpn_cls_score_reshape <- rpn_cls_score
I1125 06:09:13.611788 1767870 net.cpp:411] rpn_cls_score_reshape -> rpn_cls_score_reshape
I1125 06:09:13.611842 1767870 net.cpp:150] Setting up rpn_cls_score_reshape
I1125 06:09:13.611855 1767870 net.cpp:157] Top shape: 1 2 135 15 (4050)
I1125 06:09:13.611861 1767870 net.cpp:165] Memory required for data: 21802656
I1125 06:09:13.611867 1767870 layer_factory.hpp:77] Creating layer rpn_cls_prob
I1125 06:09:13.611877 1767870 net.cpp:106] Creating Layer rpn_cls_prob
I1125 06:09:13.611893 1767870 net.cpp:454] rpn_cls_prob <- rpn_cls_score_reshape
I1125 06:09:13.611902 1767870 net.cpp:411] rpn_cls_prob -> rpn_cls_prob
I1125 06:09:13.612026 1767870 net.cpp:150] Setting up rpn_cls_prob
I1125 06:09:13.612038 1767870 net.cpp:157] Top shape: 1 2 135 15 (4050)
I1125 06:09:13.612046 1767870 net.cpp:165] Memory required for data: 21818856
I1125 06:09:13.612051 1767870 layer_factory.hpp:77] Creating layer rpn_cls_prob_reshape
I1125 06:09:13.612063 1767870 net.cpp:106] Creating Layer rpn_cls_prob_reshape
I1125 06:09:13.612071 1767870 net.cpp:454] rpn_cls_prob_reshape <- rpn_cls_prob
I1125 06:09:13.612079 1767870 net.cpp:411] rpn_cls_prob_reshape -> rpn_cls_prob_reshape
I1125 06:09:13.612131 1767870 net.cpp:150] Setting up rpn_cls_prob_reshape
I1125 06:09:13.612143 1767870 net.cpp:157] Top shape: 1 18 15 15 (4050)
I1125 06:09:13.612149 1767870 net.cpp:165] Memory required for data: 21835056
I1125 06:09:13.612154 1767870 layer_factory.hpp:77] Creating layer proposal
I1125 06:09:13.635435 1767870 net.cpp:106] Creating Layer proposal
I1125 06:09:13.635466 1767870 net.cpp:454] proposal <- rpn_cls_prob_reshape
I1125 06:09:13.635475 1767870 net.cpp:454] proposal <- rpn_bbox_pred
I1125 06:09:13.635483 1767870 net.cpp:454] proposal <- im_info
I1125 06:09:13.635491 1767870 net.cpp:411] proposal -> rois
I1125 06:09:13.636802 1767870 net.cpp:150] Setting up proposal
I1125 06:09:13.636828 1767870 net.cpp:157] Top shape: 1 5 (5)
I1125 06:09:13.636836 1767870 net.cpp:165] Memory required for data: 21835076
I1125 06:09:13.636842 1767870 layer_factory.hpp:77] Creating layer roi_pool_conv5
I1125 06:09:13.636854 1767870 net.cpp:106] Creating Layer roi_pool_conv5
I1125 06:09:13.636860 1767870 net.cpp:454] roi_pool_conv5 <- conv5_relu5_0_split_1
I1125 06:09:13.636868 1767870 net.cpp:454] roi_pool_conv5 <- rois
I1125 06:09:13.636878 1767870 net.cpp:411] roi_pool_conv5 -> roi_pool_conv5
I1125 06:09:13.636889 1767870 roi_pooling_layer.cpp:30] Spatial scale: 0.0625
I1125 06:09:13.636975 1767870 net.cpp:150] Setting up roi_pool_conv5
I1125 06:09:13.636986 1767870 net.cpp:157] Top shape: 1 256 6 6 (9216)
I1125 06:09:13.636992 1767870 net.cpp:165] Memory required for data: 21871940
I1125 06:09:13.636997 1767870 layer_factory.hpp:77] Creating layer fc6
I1125 06:09:13.637008 1767870 net.cpp:106] Creating Layer fc6
I1125 06:09:13.637014 1767870 net.cpp:454] fc6 <- roi_pool_conv5
I1125 06:09:13.637022 1767870 net.cpp:411] fc6 -> fc6
I1125 06:09:13.748234 1767870 net.cpp:150] Setting up fc6
I1125 06:09:13.748286 1767870 net.cpp:157] Top shape: 1 4096 (4096)
I1125 06:09:13.748292 1767870 net.cpp:165] Memory required for data: 21888324
I1125 06:09:13.748313 1767870 layer_factory.hpp:77] Creating layer relu6
I1125 06:09:13.748329 1767870 net.cpp:106] Creating Layer relu6
I1125 06:09:13.748337 1767870 net.cpp:454] relu6 <- fc6
I1125 06:09:13.748344 1767870 net.cpp:397] relu6 -> fc6 (in-place)
I1125 06:09:13.748356 1767870 net.cpp:150] Setting up relu6
I1125 06:09:13.748363 1767870 net.cpp:157] Top shape: 1 4096 (4096)
I1125 06:09:13.748368 1767870 net.cpp:165] Memory required for data: 21904708
I1125 06:09:13.748373 1767870 layer_factory.hpp:77] Creating layer drop6
I1125 06:09:13.748390 1767870 net.cpp:106] Creating Layer drop6
I1125 06:09:13.748396 1767870 net.cpp:454] drop6 <- fc6
I1125 06:09:13.748402 1767870 net.cpp:397] drop6 -> fc6 (in-place)
I1125 06:09:13.748455 1767870 net.cpp:150] Setting up drop6
I1125 06:09:13.748466 1767870 net.cpp:157] Top shape: 1 4096 (4096)
I1125 06:09:13.748471 1767870 net.cpp:165] Memory required for data: 21921092
I1125 06:09:13.748476 1767870 layer_factory.hpp:77] Creating layer fc7
I1125 06:09:13.748486 1767870 net.cpp:106] Creating Layer fc7
I1125 06:09:13.748491 1767870 net.cpp:454] fc7 <- fc6
I1125 06:09:13.748498 1767870 net.cpp:411] fc7 -> fc7
I1125 06:09:13.796573 1767870 net.cpp:150] Setting up fc7
I1125 06:09:13.796624 1767870 net.cpp:157] Top shape: 1 4096 (4096)
I1125 06:09:13.796630 1767870 net.cpp:165] Memory required for data: 21937476
I1125 06:09:13.796644 1767870 layer_factory.hpp:77] Creating layer relu7
I1125 06:09:13.796670 1767870 net.cpp:106] Creating Layer relu7
I1125 06:09:13.796679 1767870 net.cpp:454] relu7 <- fc7
I1125 06:09:13.796687 1767870 net.cpp:397] relu7 -> fc7 (in-place)
I1125 06:09:13.796699 1767870 net.cpp:150] Setting up relu7
I1125 06:09:13.796705 1767870 net.cpp:157] Top shape: 1 4096 (4096)
I1125 06:09:13.796710 1767870 net.cpp:165] Memory required for data: 21953860
I1125 06:09:13.796715 1767870 layer_factory.hpp:77] Creating layer drop7
I1125 06:09:13.796725 1767870 net.cpp:106] Creating Layer drop7
I1125 06:09:13.796730 1767870 net.cpp:454] drop7 <- fc7
I1125 06:09:13.796736 1767870 net.cpp:397] drop7 -> fc7 (in-place)
I1125 06:09:13.796772 1767870 net.cpp:150] Setting up drop7
I1125 06:09:13.796782 1767870 net.cpp:157] Top shape: 1 4096 (4096)
I1125 06:09:13.796787 1767870 net.cpp:165] Memory required for data: 21970244
I1125 06:09:13.796792 1767870 layer_factory.hpp:77] Creating layer fc7_drop7_0_split
I1125 06:09:13.796800 1767870 net.cpp:106] Creating Layer fc7_drop7_0_split
I1125 06:09:13.796805 1767870 net.cpp:454] fc7_drop7_0_split <- fc7
I1125 06:09:13.796813 1767870 net.cpp:411] fc7_drop7_0_split -> fc7_drop7_0_split_0
I1125 06:09:13.796821 1767870 net.cpp:411] fc7_drop7_0_split -> fc7_drop7_0_split_1
I1125 06:09:13.796883 1767870 net.cpp:150] Setting up fc7_drop7_0_split
I1125 06:09:13.796892 1767870 net.cpp:157] Top shape: 1 4096 (4096)
I1125 06:09:13.796898 1767870 net.cpp:157] Top shape: 1 4096 (4096)
I1125 06:09:13.796902 1767870 net.cpp:165] Memory required for data: 22003012
I1125 06:09:13.796907 1767870 layer_factory.hpp:77] Creating layer cls_score
I1125 06:09:13.796922 1767870 net.cpp:106] Creating Layer cls_score
I1125 06:09:13.796927 1767870 net.cpp:454] cls_score <- fc7_drop7_0_split_0
I1125 06:09:13.796936 1767870 net.cpp:411] cls_score -> cls_score
I1125 06:09:13.797102 1767870 net.cpp:150] Setting up cls_score
I1125 06:09:13.797112 1767870 net.cpp:157] Top shape: 1 2 (2)
I1125 06:09:13.797117 1767870 net.cpp:165] Memory required for data: 22003020
I1125 06:09:13.797125 1767870 layer_factory.hpp:77] Creating layer bbox_pred
I1125 06:09:13.797133 1767870 net.cpp:106] Creating Layer bbox_pred
I1125 06:09:13.797139 1767870 net.cpp:454] bbox_pred <- fc7_drop7_0_split_1
I1125 06:09:13.797147 1767870 net.cpp:411] bbox_pred -> bbox_pred
I1125 06:09:13.798260 1767870 net.cpp:150] Setting up bbox_pred
I1125 06:09:13.798279 1767870 net.cpp:157] Top shape: 1 8 (8)
I1125 06:09:13.798285 1767870 net.cpp:165] Memory required for data: 22003052
I1125 06:09:13.798293 1767870 layer_factory.hpp:77] Creating layer cls_prob
I1125 06:09:13.798303 1767870 net.cpp:106] Creating Layer cls_prob
I1125 06:09:13.798310 1767870 net.cpp:454] cls_prob <- cls_score
I1125 06:09:13.798317 1767870 net.cpp:411] cls_prob -> cls_prob
I1125 06:09:13.798408 1767870 net.cpp:150] Setting up cls_prob
I1125 06:09:13.798418 1767870 net.cpp:157] Top shape: 1 2 (2)
I1125 06:09:13.798424 1767870 net.cpp:165] Memory required for data: 22003060
I1125 06:09:13.798429 1767870 net.cpp:228] cls_prob does not need backward computation.
I1125 06:09:13.798434 1767870 net.cpp:228] bbox_pred does not need backward computation.
I1125 06:09:13.798439 1767870 net.cpp:228] cls_score does not need backward computation.
I1125 06:09:13.798444 1767870 net.cpp:228] fc7_drop7_0_split does not need backward computation.
…
